Gender_Classification.tflite (tflite, 91256 bytes, 11 tensors)

unknown_0 f4 [128]
00000000: 04df 5dbb 102b 4b3c 5f00 5b3c b45d 0abb
00000010: def4 3d3b 2059 483c be51 ce39 25fe efbb
00000020: 53df 23bc 173d 563c 33e5 46bb d8c7 07bb
00000030: 16dd dfbc d1a7 733b 9de1 3b3b b277 37bb
00000040: 6495 67bb c0c9 ba3b e58d e2ba 2dea 543c
00000050: c63d c8bb 0eb7 a5bb 5cc5 bbbb 2446 9a3b
00000060: ea7c 56bc 1954 50bc 9cf5 34bc 8150 3ebc
00000070: adbb c63b 968b e13a e327 62bb 247d 5d3b
00000080: bae8 b23c c3fc 6cbb a6a3 343a b46a a3bb
00000090: ed05 c7ba 2fd9 c6bb c48a 223c fea9 6939
000000a0: b08f 983b 814e 1b3c 5c30 9abb e8bd b9ba
000000b0: 81b7 43bb 0802 90bc 49cd 15bd 2ca9 233c
000000c0: 6c0b 95ba 6dfb 4a3c 404a 633b bb56 01bc
000000d0: 0f22 483b c03b fcbb ab78 14bc a5cd c6bc
000000e0: f023 d6ba e8ae 963b ea73 7bbc 0057 8f3b
000000f0: 520c f23b cf75 f43b 76af d03a 4810 02bc
00000100: ce77 71bc d9b8 743c 3739 cbbb 4426 0b3c
00000110: 609f 573b 25fa a03c 2716 0e3c e769 88bb
00000120: abf3 083c 5a02 d73c 8893 6ebc 8762 e83a
00000130: bec7 20bb 3337 223c 3005 5238 6818 dfbb
00000140: c1da 8dbb e0d2 5c3b c06f 3639 bb7d 8b3b
00000150: 4ea2 943b b024 1539 3167 3ebc 3dbc 0bbc
00000160: 0b5c 97bc 0655 823b fa4c 8a3b 17c7 aabb
00000170: 4aa1 9bbc d7c8 ffbc 24c6 393c 33ad 29bc
00000180: bb5d 873b bbfa 1d3c 5f27 1ebc 23a0 4cbb
00000190: 5433 813a a19a a03b 1993 14bd 8c63 003c
000001a0: df7c bcbb d065 e0bb 9e73 d5bb 5680 bcbc
000001b0: 2f2d d9bb 88e4 9fbc 5452 d7bb cd17 8ebc
000001c0: 32cb 09bc 2580 7abb a592 9abc ae6a 3f3c
000001d0: 146c c7bb 801f 19ba 44bb 32bb d62c 543b
000001e0: 1968 553b a9d7 453b ed62 13bc 4533 73bb
000001f0: 9c83 653b 7754 1cbb 3b67 163d e6db 00bd
-0.0033854851 0.012400404 0.013366788 -0.002111298 0.0028985064 0.01222828 0.00039352285 -0.0073239976
-0.010001975 0.013076088 -0.0030349016 -0.0020718481 -0.027327102 0.0037178884 0.0028668412 -0.0027994928
-0.0035336846 0.00570032 -0.001728472 0.012995285 -0.0061108796 -0.005057222 -0.005730314 0.0047080684
-0.013091305 -0.012715363 -0.011044886 -0.011615873 0.006064853 0.0017207738 -0.0034508638 0.0033796513
0.021839488 -0.00361614 0.00068908406 -0.0049870852 -0.0015184261 -0.006068371 0.00992078 0.00022283939
0.0046558008 0.009479166 -0.004705472 -0.0014170976 -0.0029864016 -0.017579094 -0.03657273 0.009989064
-0.0011371202 0.012389046 0.0034681708 -0.007894213 0.0030537879 -0.0076975524 -0.009061973 -0.02426798
-0.0016337615 0.004598487 -0.01534746 0.004374385 0.0073867226 0.007460333 0.0015921432 -0.007938452
-0.014738036 0.014936649 -0.006201889 0.00849301 0.0032901391 0.019650528 0.008672274 -0.004163015
0.008358876 0.026246238 -0.014561541 0.0017729559 -0.0024533118 0.009900856 5.0072733e-05 -0.0068083294
-0.004329056 0.0033695027 0.00017398503 0.0042569316 0.00453595 0.00014223414 -0.011621282 -0.008528766
-0.018476507 0.0039774207 0.004220602 -0.0052117216 -0.018997807 -0.031223698 0.011338744 -0.010356235
0.0041310466 0.009642298 -0.0096529415 -0.0031223379 0.0009857216 0.0049012457 -0.036273096 0.007836234
-0.0057521905 -0.0068480745 -0.006514027 -0.023010414 -0.0066277008 -0.019518152 -0.0065710936 -0.017345333
-0.008410262 -0.0038223353 -0.018868754 0.011683149 -0.006085882 -0.00058411807 -0.0027272264 0.0032375357
0.0032563268 0.0030188358 -0.008995754 -0.0037109416 0.0035021072 -0.0023854056 0.036719542 -0.03145971

unknown_2 f4 [64]
00000000: 0000 0000 4600 c4bb c625 1d3c 7210 8d3b
00000010: 7f65 2dbb 0000 0000 0000 0000 fdd5 81bb
00000020: 100f fa3b 9d33 733c d1dc 653a 0000 0000
00000030: a8a3 d93b 389a ba3b 2e08 05bc d57f d33a
00000040: 03e0 303c ede0 eabb b4dc 4b3b 0000 0000
00000050: 4fe0 12bc 0000 0000 fad3 873c d9eb b03a
00000060: 0000 0000 2bd1 20bc 0000 0000 3a5d 15bc
00000070: 4883 a9bc 0000 0000 0000 0000 536c 343c
00000080: fa4e ef3b 0000 0000 c235 6dbb 89e2 263c
00000090: e1c4 6e3c 0000 0000 0000 0000 0000 0000
000000a0: bc8b 0d3c c4b2 c6bb 0000 0000 0000 0000
000000b0: 0000 0000 0000 0000 0000 0000 0000 0000
000000c0: 2fcb 32bb 0000 0000 4db8 6fbc 6a69 d13a
000000d0: 0000 0000 8519 c8bb e141 33bc 7a95 903c
000000e0: bde9 8338 b574 6b3c 8e6a 1b3c 2725 47bc
000000f0: 0000 0000 66a1 343c 0000 0000 0000 0000
0.0 -0.005981478 0.009591525 0.004304939 -0.0026458201 0.0 0.0 -0.003962277
0.00763119 0.0148438485 0.0008768561 0.0 0.006641824 0.005694654 -0.008119626 0.0016136119
0.010795596 -0.0071679265 0.003110689 0.0 -0.008964612 0.0 0.01658057 0.0013498022
0.0 -0.0098154945 0.0 -0.009116465 -0.020692483 0.0 0.0 0.011012155
0.007303116 0.0 -0.0036195372 0.010185846 0.014573307 0.0 0.0 0.0
0.008639272 -0.006063791 0.0 0.0 0.0 0.0 0.0 0.0
-0.0027281751 0.0 -0.014631343 0.001597685 0.0 -0.006106558 -0.010941 0.017649401
6.290104e-05 0.014371087 0.009485854 -0.012154854 0.0 0.0110248085 0.0 0.0

unknown_4 f4 [32]
00000000: f934 90bb 1b87 f1ba 6a79 6e3b 7d75 2dba
00000010: 27d8 cbbc 37a8 cbbb d3a4 93bc 3527 f73b
00000020: fbcb 8cbc aba9 93bb 40e1 8ebc 4642 fe3c
00000030: e989 ce3b aa24 e93b 15ce fdbc 708e b1bc
00000040: 7594 c23b 3124 8d3b eea5 22bc 75da 433c
00000050: 142c 2fbc ef1d a5bc 2521 54bb 0ff8 113c
00000060: 514d 403c 1189 f4bb ea86 c8bc 5b8a d2bc
00000070: 030e 6dbc 3bc6 6abc 999e 58ba 921b 853c
-0.004400846 -0.0018427105 0.0036388286 -0.00066169334 -0.024883343 -0.006215121 -0.01802293 0.0075425156
-0.01718711 -0.00450631 -0.017441392 0.031037461 0.0063030613 0.0071149664 -0.030982057 -0.021674365
0.0059381076 0.004307293 -0.009927256 0.01195394 -0.010691661 -0.020155875 -0.0032368388 0.008909239
0.011737184 -0.0074626287 -0.024478395 -0.025700739 -0.014468673 -0.014329488 -0.0008263379 0.016248498

unknown_6 f4 [64]
00000000: 7eb3 f83c 3098 c23c 0017 d93c c828 a43c
00000010: 7b39 14bc 47b0 7a3c 1a84 ae3c 517a 2a3a
00000020: 0000 0000 a5c1 543d 794f 8dbc 6990 f33c
00000030: 57bb 0c3d 0000 0000 b088 353c 4082 2f3b
00000040: 32b9 1d3b 75d5 4f3c caa1 52bc df4a 623c
00000050: 9056 5e3c ba8b c43b 3c44 973c 0363 3f3d
00000060: 71a4 b63c 5b8e 04bc 0000 0000 a70a 8c3c
00000070: 1e19 863c 1cc0 11bc 2f5c 033d 074b 23bc
00000080: fc70 f33a 84a9 4bbc 4b09 833c 67bb 0f3d
00000090: e2a2 3cbc 8dfb 093d 4386 863c a3ba 1b3c
000000a0: 5084 2f3a db05 173d 9597 3dbc 951d ca3c
000000b0: bd04 6ebc 665d 073c eb5a 173c 664c ffbb
000000c0: 66e7 303b 7e86 fbbb 0000 0000 c11f 7fbc
000000d0: 72ff 2ebc 0e72 bb3c 0eea d63b 9023 003c
000000e0: 8d32 41bc 1581 623a cece 7c3c ae74 6938
000000f0: ad58 01bc c2a8 9a3b e117 8ebb 87b6 703b
0.030359026 0.02375421 0.026500225 0.020038977 -0.009046908 0.015300817 0.021303225 0.0006503212
0.0 0.051942486 -0.01724981 0.029731946 0.03435835 0.0 0.011079952 0.0026780516
0.0024066684 0.0126851695 -0.012855956 0.013811796 0.013570443 0.005998102 0.018465154 0.046725284
0.022295209 -0.008090581 0.0 0.017094923 0.016369399 -0.0088959 0.032070335 -0.009966618
0.0018573101 -0.012430552 0.015995642 0.03509083 -0.011513444 0.033687163 0.016421443 0.009504947
0.00066954363 0.03687082 -0.0115717845 0.024672309 -0.014527497 0.008262014 0.009237985 -0.00779109
0.0026993393 -0.007675945 0.0 -0.015571536 -0.01068102 0.022881534 0.006558663 0.007820979
-0.011791837 0.00086404505 0.015430165 5.5660195e-05 -0.007894677 0.0047198245 -0.0043363427 0.0036729889

unknown_8 f4 [128]
00000000: 610c e83b 9807 dc3b 16e2 723c 91d0 7d3c
00000010: ed91 65bc 6784 2cbc 1919 74bc b1d2 0d3d
00000020: a088 073d 6f51 3bbc 4586 113d d5a1 0f3d
00000030: 6733 06bc d0a9 7e3b 81a9 a9bc cb37 8e3c
00000040: c68e 0c3c 18a4 923c a4c1 64bb a898 d2bb
00000050: 9ecf a23b 9560 4a3c 7e81 743c 1b22 b53b
00000060: f2ab 923c 4d4f fcbc 8e00 833c 53c0 343c
00000070: da12 a63b 1297 bc3c 7cd2 2c3c a4cb ce3a
00000080: 3a3d acbc 650c 73bb 8214 033d d151 a2bb
00000090: 11ed c93c bc70 9c3b 617d 53bc 0505 303d
000000a0: ac96 a73c 1883 413d bcd3 87bc fe62 e73b
000000b0: d610 343c b379 403a b1ea f23c 45d3 fd3b
000000c0: 05ac e43c 3269 973c eeed 97bc 6cab 323d
000000d0: 3472 543c 3da0 193d b702 0f3d 98ae aa3b
000000e0: e419 3c3d 9c76 1e3c 5daa 833c 59e6 763c
000000f0: 4255 92bb 47be f53a 89aa ebba 8c0d 073d
00000100: fde1 ad3b 33e1 71bc 44c1 a43b 6aef f03c
00000110: 879c 96bc a233 133d 453c a63c c468 bd3c
00000120: c0da d6bb 606e 533c 3b14 f73c e3ee 863c
00000130: 0d95 3fbc 035d 0cbc 14d8 4fba 6ea9 dc39
00000140: 49f8 693b 34cc 253c dd3d eeba bc35 8d3a
00000150: 4589 8dbb 608a 5e3c 55b0 e63c cae5 b53b
00000160: 90c0 113d 4c20 4d3a 4297 bfbb 7a63 483c
00000170: 0e10 ba3c 711c a23c eed4 38bc 7d9a 9bba
00000180: e885 b5bb 9f6f bb3c 10a9 3f3c 2204 233c
00000190: 5ca3 ab3c b243 493d f990 493c 4ffc e43b
000001a0: e0f5 253c c3c3 aabb 4c1b 983c c4d0 4a3c
000001b0: 5274 9b3a 5ba2 e3bb c792 093c 658b afbc
000001c0: 6c30 06bd 9e66 20bc 2a42 6b3b 34da 843c
000001d0: 3bc4 4ebc 1d36 2bba fefc 1a3c ea9d 0f3c
000001e0: 2231 f7bc 3fc9 f8bb 2938 153c bd87 96bc
000001f0: c56a 313d 2e10 98bc e428 1fbb 3b79 433c
0.007081554 0.0067147724 0.014824411 0.015491621 -0.014011842 -0.010529614 -0.014898562 0.03462476
0.03308928 -0.0114329895 0.03552844 0.035066444 -0.008190966 0.003885854 -0.020710709 0.017360589
0.008578962 0.017900512 -0.0034905458 -0.0064268894 0.0049685976 0.0123521285 0.0149234515 0.0055277473
0.017904256 -0.030799532 0.015991475 0.011032182 0.0050681653 0.023021255 0.01054823 0.0015777242
-0.021025289 -0.0037086245 0.03200198 -0.004953601 0.024649175 0.004774181 -0.012908311 0.042973537
0.020457588 0.04724416 -0.016580455 0.0070613613 0.010990342 0.00073423533 0.029652925 0.0077461326
0.027914057 0.018482778 -0.01854607 0.043620512 0.012966681 0.03750633 0.0349147 0.0052088015
0.04592313 0.009671833 0.016072446 0.015069568 -0.00446573 0.0018748724 -0.0017979901 0.032971904
0.005306481 -0.014763164 0.005027922 0.029411037 -0.018385185 0.035937913 0.02029241 0.023121245
-0.0065568388 0.012904733 0.030161014 0.016471332 -0.011693251 -0.008567098 -0.00079286215 0.00042087905
0.0035700968 0.010119487 -0.0018176396 0.001077346 -0.0043193423 0.013582796 0.028160254 0.0055510746
0.035584033 0.0007824942 -0.0058468888 0.012230748 0.022712734 0.019788953 -0.011281235 -0.0011871603
-0.0055396445 0.022880374 0.0116980225 0.009949716 0.02095192 0.049136825 0.012302631 0.0069880853
0.010129422 -0.005211325 0.018567704 0.012378875 0.0011860228 -0.0069468445 0.008396811 -0.021428773
-0.032761022 -0.009790091 0.003589759 0.016217329 -0.012620027 -0.0006531196 0.009459732 0.008765677
-0.030174796 -0.00759235 0.009107628 -0.018375272 0.043314714 -0.018562403 -0.0024285847 0.011930759

sequential/dense/MatMul;StatefulPartitionedCall/sequential/dense/MatMul f4 [128, 7]
00000000: c2d3 433e 8f38 813d 0a91 693e a02b 96bd
00000010: 1472 253c 76e1 6fbd c648 453d 08cd 803e
00000020: 0a42 9e3e c9b2 2a3e a9c3 1dbd e4f5 2a3b
00000030: 4217 38be 4dbe 15be d202 8abd 51f0 003e
00000040: e59c 2f3d 2a43 c5bc 4680 2c3e 5981 1a3e
00000050: 0c96 333d 8e01 a1bc 6701 f93c 8388 483d
00000060: 675e 073d 40c2 c83c 060c b1bc 72ce d0bd
00000070: d543 8b3d 593c 033e 5458 5f3e ddbe 9e3d
00000080: 9814 a93d 6617 0e3d 1e6b 713b 73e6 c43b
00000090: cd94 e3bc c5d7 8a3e 7601 e73d 9cc7 22bc
000000a0: ff80 313e 8f73 c039 84a4 603e 0a61 67bd
000000b0: 9fd1 7d3e 6691 b8bd 4d49 81bd ec09 333d
000000c0: 437a 1abe a832 4e3d 02fd 90be da9e 24be
000000d0: 6de7 843d fde0 063e ed14 95bc d68d bf3b
000000e0: 38e3 53be a2d8 a0be d390 69be 0314 0dbe
000000f0: 06de 22be 7f46 123e 7427 263e 43b2 633e
00000100: 0310 9b3e f05f b03e 6dc8 c53d 5595 9bbd
00000110: 97bf 093e 453b 913c 242a 92bd 3193 b53d
00000120: a137 8e3e 99d6 44be d9de 233d 6ae3 f23d
00000130: ae09 13be de0f 4dbd ec11 95be 610d 98be
00000140: 7d82 f9bd b678 55be 2881 efbd 7cc3 773d
00000150: 4f94 e9bd 71b9 57be b193 e9bd ac5e c1bd
00000160: c3ca 93bd a4f8 463e 41b8 2bbe 37f7 943e
00000170: 517b 323e 0ec7 d83d f4d5 eebd 2e2e 0d3e
00000180: 487a 17be f34e e23d bae8 213e b737 083e
00000190: fb0c 02bd 63c0 063e a95a 67bd 0831 a13d
000001a0: 1e8c 0abe c528 86be 914b 203d b4e5 05be
000001b0: f2e5 debd cd73 a13d 3b4f ba3d 20ab 493e
000001c0: 8485 f7bc fb53 82be ae6e 9cbe f9d8 163e
000001d0: b828 92bc 33ae 653e 45cc 18be e11a 223e
000001e0: e7f6 cdbd 5b4c 133e 526c 263e 1803 5f3e
000001f0: 6212 443e 8cd4 e73d 9090 233d 2123 25bd
00000200: a263 5dbe 5f81 12be bbdc c63d 5b0b 76bc
00000210: 0877 a83d 2c4f 6cbc f910 a83e 0419 9f3e
00000220: 392e aabd 894c 623e c5cb 21bd d22d febd
00000230: b341 c93d 0abf 38be 5a93 e93c cde2 433c
00000240: 0f42 46be 2958 a43b 3eb8 ce3d fa1b 463e
00000250: dd81 2a3e 29ed a73e 1c47 9ebd a809 95bd
00000260: af26 073d fd3d c23d 4794 6ebe d244 88bd
00000270: e7b5 92be fb11 593e cc08 513d 0af2 b43c
00000280: 42bd 1a3b b912 55be b8d9 43bd 1434 8bbe
00000290: 2ffc a6bb 37f8 943c 8f38 183e a6d4 383e
000002a0: ea81 1fbe 34b6 a8be e174 113d 9daa 433c
000002b0: 80d0 bebb 83bb 16bd ace1 20be 9eba 7bbe
000002c0: 19c9 c0bd b789 69be f862 483e 02e9 1abd
000002d0: 13af 503e 79f9 233e 3374 1e3e 2562 133e
000002e0: ae4a 8e3e fc58 afbd f6d1 bf3d 8087 1fbe
000002f0: eff8 b1bd afcc 03be e044 91be 2d07 a6bd
00000300: 2922 ee3d 1823 3bbe fc9b b33d 4c45 d23d
00000310: d668 3e3e 1891 623e c380 163e e706 8e3d
00000320: b8c5 b43d 504e ca3d 4f96 cfbd 6a36 113e
00000330: 5ff7 b8bd 69ee 2ebe f713 7a3d 099b 2d3d
00000340: 53e8 223e c9f4 4bbd 4cac 3b3e a13c 28bd
00000350: 58d7 b13e b88d 2b3e 5578 003e 1d80 c73d
00000360: 8b91 16bd 3f96 8d3d 1203 263e adc7 c93d
00000370: 4ef4 5cbd 6e63 5e3e e11a cf3d 90bb 293e
00000380: 577f 38be 5bdc 7abd bd8d 94be 93c0 3a3e
00000390: 8b25 5abe 6944 833d d4b5 21be f73c 00be
000003a0: 4a56 8abe b76f 9abe e61f 9bbd aa23 9ebc
000003b0: 124c 48bd 17cd 383e 4399 a13e aba5 753d
000003c0: 61dc b43e d979 af3d e099 c5bc 6941 b0bd
000003d0: 2636 0dbe 342a 23be 4a05 903d 2825 ad3d
000003e0: 57ea 62bd 94c1 6dbd 84c4 a7bb e316 42bc
000003f0: 8f96 f53d 9b22 8cbd db03 85be 4288 6d3d
0.19123748 0.06309616 0.22809234 -0.073325396 0.010097999 -0.058564626 0.048165105 0.25156426
0.3090976 0.16669764 -0.038516674 0.0026086504 -0.17977622 -0.14623375 -0.06738819 0.12591673
0.042874236 -0.024079878 0.16845807 0.15088405 0.043844268 -0.019654062 0.030396177 0.048958313
0.033049013 0.024506688 -0.021612179 -0.10195626 0.06800047 0.1281599 0.21811038 0.07751248
0.08255881 0.034690283 0.0036837528 0.006008917 -0.027780915 0.27117744 0.112795755 -0.009935286
0.17334364 0.00036707192 0.21937758 -0.056489028 0.24786995 -0.090121076 -0.06312809 0.043710634
-0.15085702 0.05034128 -0.2831803 -0.16076222 0.064894535 0.13171764 -0.018198455 0.0058457656
-0.20692146 -0.31415278 -0.22809152 -0.13777165 -0.15905008 0.14284705 0.16225988 0.2223597
0.30285653 0.34448195 0.09657369 -0.07596842 0.13451992 0.017728457 -0.07136944 0.08865965
0.27776816 -0.19222488 0.040007446 0.11859782 -0.14359161 -0.05006396 -0.29115236 -0.29697707
-0.12183092 -0.20846829 -0.116945565 0.060489163 -0.11405241 -0.21066834 -0.11405123 -0.09441885
-0.07216408 0.19430786 -0.16769506 0.2909486 0.17429854 0.10584842 -0.11661902 0.13787147
-0.1479274 0.110502146 0.15811434 0.13302504 -0.03175066 0.13159327 -0.056482945 0.0787068
-0.13530013 -0.2620298 0.039134566 -0.13075906 -0.10883702 0.07883415 0.09097143 0.19694185
-0.030215032 -0.25454697 -0.30553192 0.14731206 -0.017841682 0.22429733 -0.14921673 0.15830566
-0.100568585 0.14384596 0.16252258 0.21778524 0.19147637 0.11319837 0.039932787 -0.040316705
-0.21620038 -0.14307164 0.0971007 -0.015017356 0.082258284 -0.014423173 0.3282545 0.31073773
-0.083095975 0.22099508 -0.03950097 -0.12411083 0.09826984 -0.18041626 0.028512646 0.011955929
-0.19361137 0.0050153923 0.10093735 0.1934661 0.16651101 0.32798126 -0.07728407 -0.072772324
0.032995876 0.094844796 -0.23298751 -0.066537514 -0.28654405 0.21198265 0.05103378 0.02208807
0.0023611342 -0.20807923 -0.047815055 -0.2718817 -0.0050959806 0.018184764 0.14865325 0.18049869
-0.15576902 -0.3295151 0.035511855 0.011942533 -0.005823195 -0.03679992 -0.15711087 -0.24582908
-0.09413356 -0.2280644 0.19569004 -0.03781987 0.20379286 0.16013135 0.15474014 0.14392908
0.2779135 -0.08561894 0.09366219 -0.15579033 -0.086900584 -0.1287105 -0.2837286 -0.081068374
0.11627609 -0.18275106 0.08769986 0.102671236 0.18594679 0.22125661 0.14697556 0.0693491
0.08826774 0.09878218 -0.10136091 0.14180914 -0.09031557 -0.17083134 0.061054196 0.04238418
0.15908937 -0.049793992 0.18327445 -0.041073445 0.34734607 0.1675328 0.12545903 0.097412325
-0.036759894 0.06913423 0.16212109 0.09852538 -0.053943925 0.21717617 0.101125486 0.16575456
-0.18017326 -0.061245304 -0.29014388 0.18237524 -0.21303384 0.064095326 -0.15792018 -0.12523256
-0.27018958 -0.30163357 -0.075744435 -0.019304115 -0.04890067 0.18046986 0.31562242 0.059972446
0.35324386 0.085681625 -0.024121225 -0.08606226 -0.13790187 -0.15934068 0.07032259 0.084543526
-0.055399265 -0.05804594 -0.005119862 -0.011846277 0.119916074 -0.06842538 -0.25979504 0.057991274

sequential/dense_1/MatMul;StatefulPartitionedCall/sequential/dense_1/MatMul f4 [64, 128]
00000000: e063 aebb f657 ca3d 5a88 d13d 1a82 25be
00000010: 68b0 223d 7fb4 a3bd 5306 9fbd 6e68 11be
00000020: 7aa0 18be 06db cb3d e7ac a1bd c8e8 eebd
00000030: d9bb 2a3e f00d 63bc 9bf2 acbd 2e6a c43d
00000040: b479 763d 08a9 2fbe 5828 b2bd 16df c83d
00000050: 10be 6fbc fc71 d9bd f1b6 dbbd 006c af3b
00000060: f3c3 c7bd be24 a9bd 1efb 0cbe b249 dfbd
00000070: ba18 e73d 08fe 86bd fb3c 1b3e a03b 40bc
00000080: 8cd1 3cbd 08d1 25bd f89d 2e3d 4007 babb
00000090: 8ed9 c8bd 00ce 5f3b f333 c2bd 7da7 c7bd
000000a0: eef8 d23d e07a 7c3c c8bf e9bc 02c5 e5bd
000000b0: 1008 8d3c 7702 2d3e 7877 a6bd 707c ffbd
000000c0: c8ca 4bbd de45 a9bd a1ff 22be 432c 333e
000000d0: 463d be3d d44d 1e3d 4ced babd 01ad 013e
000000e0: 4c23 d1bd feb4 9d3d 4383 dabd d2b8 8bbd
000000f0: 25c2 2c3e 62cb 17be 858f 8fbd 3c32 923d
00000100: 16e6 15be b472 1cbd c784 98bd 6600 db3d
00000110: a292 e73d a21d cb3d bea3 93bd ccbd 27be
00000120: dcfd 40bd f542 dabd 3254 ff3d 481b 383d
00000130: d647 bebd 1341 0e3e 0c7a 23be d9c6 1f3e
00000140: e455 cebd eb95 aabd 427a b73d f965 1dbe
00000150: 5e13 fbbd d0fc ecbd 6923 013e c779 183e
00000160: 2959 d3bd 4090 6dbb 002e 2fbd 3038 5dbc
00000170: 50a2 9ebd 40cc ebbb 78f0 16be b0cc 08bc
00000180: 4031 e53c e491 403d b877 4fbd 17f5 2d3e
00000190: 3c9a 0bbe 86d8 c3bd 8db2 10be 738f a5bd
000001a0: 000d 3b3d 22b9 c83d da09 ecbd 052b 233e
000001b0: fce5 07be 86bf 0bbe e072 fabd d260 9d3d
000001c0: d8cd bfbc 8028 af3a f31e 083e a7ef 143e
000001d0: 26b3 fe3d 5d0e 1e3e f8aa 4cbd 0063 46ba
000001e0: 0bc4 093e bc36 8fbd 8280 ee3d 137a 07be
000001f0: 60e4 49bc 94da 19be 4558 c7bd 8633 d43d
00000200: 5dcb d4bd 87c7 2abe afc7 863d 9646 0ebe
00000210: 46ce 0ebe bddb 613d 9987 403d 8c24 7abd
00000220: 1ba3 c2bd cce2 9b3c 1402 283e b6d1 063e
00000230: fc56 c53d 3581 ab3d 6890 be3d 3f76 4abd
00000240: 6471 debd 0469 98bd 930d 163e dc78 b23c
00000250: e6f0 f33d e705 0dbe ebc2 1b3e 23f0 513d
00000260: 338e 2bbe 04a8 f83c d5e8 e3bd 2ea0 36be
00000270: 5526 b4bc b775 023e 9e52 e4bc 5a44 5a3d
00000280: d22b 653d 3d0c a5bd b90b e73c ac3f 633d
00000290: 9e60 8c3c a2f7 2d3e bd9a a8bd 2625 a43d
000002a0: b872 3abe fcfc 2bbe ab3f 053a 961e c5bd
000002b0: fb98 883d 7c44 403d 0819 0b3e fc7b 6dbd
000002c0: bbf1 343d 17fc 6a3d 7eaf 233d 6e7c 9cbd
000002d0: d99e fdbd 9bde 0cbe 45a1 18bc d313 f03d
000002e0: 0203 083e ec1c b9bd f983 07be 21dd b33d
000002f0: 99c3 f7bc aee4 bf3d f0ea 02bd 2fab 283e
00000300: 1cc5 d8bc fdec 1b3e e068 dc3d efda ce3d
00000310: 4b5a 18be ba45 9ebd 7a33 b8bc c23c cd3d
00000320: 4cd6 34be 7254 3abe cb1c 2dbe 5070 82bd
00000330: e09d 00be 850b 8abd e426 cd3c cdde b03d
00000340: 28e7 b13c 2f34 913a 0788 8d3d 9ae1 a83c
00000350: b145 e33d 9f03 a9bd 5546 3dbd 7b7c c53d
00000360: 4ca7 50bd 2566 173e 4065 f0bd 0651 bf3c
00000370: 816c b6bd 9dc6 4fbd 593e d93d 4b9a f13d
00000380: b23c 4cbd 7409 eebd 9505 debd 402d 3abe
00000390: 8d64 97bd 932b 233d 73d3 2abd 2c1c 203e
000003a0: 1970 793d 35da 33bd b04f 0c3e 4908 323c
000003b0: d553 b3bc 9f7d 253e cb46 bd3d 70a6 813d
000003c0: da6d 383d bab0 29be 44b6 d23c 0ac8 34be
000003d0: 8121 a33d 45ff 2abe 698b e73d 4b9b c5bd
000003e0: c148 27be 7d78 883d 7e07 853d 3360 00be
000003f0: dc87 003d a06c 10be 3c20 053d d2ec e3bd
-0.0053219646 0.098800585 0.10231085 -0.16162911 0.039719015 -0.07993411 -0.07764878 -0.14199993
-0.14904967 0.09953885 -0.07894307 -0.11665493 0.1667322 -0.013858303 -0.08444711 0.09590565
0.06017466 -0.17154324 -0.08699101 0.09808175 -0.014632717 -0.10617444 -0.10728253 0.005353451
-0.09754171 -0.08258961 -0.13767669 -0.10902728 0.11284013 -0.06591421 0.15159981 -0.011732966
-0.046098277 -0.04048255 0.04263112 -0.005677134 -0.0980712 0.0034149885 -0.09482565 -0.09748743
0.10301386 0.015410155 -0.028533831 -0.11219217 0.017215759 0.16895472 -0.081282556 -0.124749064
-0.049753934 -0.08265279 -0.15917827 0.17497353 0.09289031 0.03864844 -0.09127292 0.12663652
-0.102118105 0.07700537 -0.106695674 -0.06822361 0.16870935 -0.14823678 -0.07009796 0.07138488
-0.14638552 -0.038195327 -0.074472 0.10693435 0.11307265 0.099177614 -0.07208966 -0.16380996
-0.0471171 -0.10657302 0.12467231 0.044947892 -0.09291045 0.13892011 -0.15964526 0.15603198
-0.10074976 -0.08329376 0.08958866 -0.1537093 -0.122595534 -0.11571658 0.12611164 0.14890204
-0.1031974 -0.003624931 -0.04276848 -0.013502166 -0.077458024 -0.0071959794 -0.14740169 -0.008349583
0.027977586 0.047014132 -0.050651282 0.16988026 -0.13633054 -0.09562783 -0.14130612 -0.080840014
0.045666695 0.09800936 -0.115253165 0.1593438 -0.13271326 -0.13647279 -0.12228942 0.07684483
-0.023413584 0.001336351 0.13293056 0.14544545 0.124365136 0.15435167 -0.049967736 -0.0007567853
0.1345369 -0.06992862 0.11645605 -0.13230161 -0.012322515 -0.15024787 -0.09733633 0.1036139
-0.10390351 -0.16677676 0.065810554 -0.13894114 -0.13945875 0.0551412 0.047004316 -0.06107001
-0.09503766 0.019029044 0.16407043 0.13165936 0.096357316 0.08374254 0.09304887 -0.049429175
-0.10861471 -0.07441905 0.14653616 0.021786146 0.11911182 -0.13771783 0.15211074 0.051254403
-0.16753463 0.030353554 -0.111283936 -0.17834541 -0.021990934 0.12740217 -0.027871426 0.05328784
0.055949993 -0.08058975 0.028203832 0.055480644 0.017135914 0.16988996 -0.08232639 0.08014898
-0.18207824 -0.16795725 0.00050830346 -0.096249744 0.06669804 0.04694031 0.13583767 -0.05797957
0.044175845 0.057369318 0.039962284 -0.076409206 -0.123838134 -0.13756792 -0.009315793 0.11722531
0.13282397 -0.090387195 -0.13233937 0.08782411 -0.030244635 0.09369789 -0.031962335 0.16471551
-0.026461177 0.15227123 0.10762191 0.10100352 -0.14878194 -0.07728143 -0.022485483 0.10021354
-0.17659873 -0.18196276 -0.16905515 -0.06369078 -0.12560225 -0.067404784 0.025042959 0.08636246
0.02171667 0.0011078174 0.06910711 0.020615388 0.11097277 -0.08252644 -0.046209652 0.096428834
-0.050940797 0.14785059 -0.11738062 0.023354065 -0.08907414 -0.05072652 0.10607595 0.11797007
-0.04986257 -0.11622897 -0.108409084 -0.18181324 -0.073922254 0.039836477 -0.04170556 0.15635747
0.06089792 -0.04390927 0.13702273 0.010866233 -0.02189056 0.16161202 0.09242018 0.063305736
0.045026638 -0.16571322 0.025721677 -0.17654434 0.07965375 -0.1669894 0.11305887 -0.096487604
-0.16336347 0.06663606 0.0649557 -0.12536697 0.031379566 -0.14103937 0.032501444 -0.11129154

sequential/dense_2/MatMul;StatefulPartitionedCall/sequential/dense_2/MatMul f4 [32, 64]
00000000: 5898 59be 9d1b 1abd 061b 8f3e 9efc 08be
00000010: d452 94be 884c 89bd b852 da3d 1474 d5bc
00000020: 4146 e2bd 22f2 8ebd 5e6d 2ebe 080b 1a3e
00000030: 82b7 073e 6067 54be e455 523d b482 ec3d
00000040: 3e5c cc3d bf01 6b3e c3d3 603d 44c2 043e
00000050: bf82 f2bd 580c 833d 80ac 5f3e 6597 533e
00000060: 203e 063d c4c6 9cbd 90f0 5bbd 72e1 863d
00000070: 982a aa3d dc19 203e 18a3 29be 4753 003e
00000080: 21f5 e5bc 7849 41be b7ed 3dbe c34c 4c3e
00000090: 0133 3fbe 60ef 43bd 0014 733d 40f3 6bbc
000000a0: 8320 cebb 7bce 42be e086 2dbd 9004 45bd
000000b0: 1c47 7f3e 1008 3abe f081 1b3e b054 363d
000000c0: 69dd 223e e0ae c8bc 0bc2 73be 7228 2dbe
000000d0: 489c b03d 6e56 623e 066c 4ebe b8e3 353e
000000e0: dac0 50bd c516 763d c859 96be a49b b6bd
000000f0: 0082 e73a e45d 6cbb ac9c 593e 9860 7bbe
00000100: 38c0 743e 8ee1 f73c a9d8 903e 657c 503d
00000110: b6a0 033e a034 eb3d d4aa 1dbe 7ba7 123d
00000120: ff17 303e 3bab 4b3d ab98 48be 2894 d43d
00000130: e47b f9bd 79cb 43be 5897 47be 95fd 2fbe
00000140: 218a 403e 7939 313e d6f4 8abe 1cbc 20be
00000150: 6425 4e3e c05e f2bc e31a 673e a1e5 8dbe
00000160: 380b 2cbe 4d4f f03c 2c4a 53be 10f7 5a3d
00000170: c5c4 6dbe f489 073e 3064 323e 4a48 683d
00000180: c261 cdbd 1cf5 5d3e 758f 91be 4649 1a3e
00000190: fc58 f9bd 48e8 c43d 30f2 db3d 0055 04bb
000001a0: 7f5a d63d e71f f63d 50b6 9c3d 6065 99bc
000001b0: 80cb 3a3e 908c 583d 80e8 da3c b814 913d
000001c0: d4a4 203e 20ea 613e 98d3 12be 4567 92bb
000001d0: d416 1b3e 3403 293e 10b5 173d d495 053c
000001e0: f0c6 b9bd dbe3 863e 8f11 cb3d 57ea 8c3e
000001f0: e0b3 87bd a4ec 80be 8003 933d e8e8 d1bd
00000200: 6428 4abe 0d7d 3a3e 0f1b bebd fb58 263e
00000210: cc53 f63d 80d3 ca3b 24c7 373e 956a d43d
00000220: 62be 2f3b bd27 9ebc 6adc 933c a446 29be
00000230: c077 683c 26ff f3bd ebcc 3ebe da19 503d
00000240: 7aa4 95be 3729 583e a5ed 43bb a017 39be
00000250: 7fec 563e 5046 f9bd 5e75 77be 9d22 403e
00000260: 50ac 70be cea4 b4bd 5cfc 51be 1439 263e
00000270: ce7b ba3d e066 29bd 0086 23bd 5c0e 883e
00000280: 49e4 063e c015 a4bc a90a 8d3e 5811 7fbe
00000290: 2dff 0abd d40a 40be 5022 ed3d c02b 123d
000002a0: b7b2 fabd 54d4 2c3e e86b ecbd 00d6 4cbb
000002b0: 58a9 babd 5c97 603e 40bd 9e3c 448c 4d3e
000002c0: 470a 4ebe 8472 74be c563 63be 1b72 5bbe
000002d0: 54de 4f3e f9c0 333e 8775 e3bd a460 b9bd
000002e0: b941 55be 95b6 80be 9504 0e3e f5e4 d5bd
000002f0: 705d 4abd a894 cebd c065 73be 78e0 fb3d
00000300: 00e1 7f3b b96d 76bd fcda 19bd 236a 823e
00000310: d8c6 63bd 0047 6e3b 78f8 2abe 7957 3d3e
00000320: 24d9 85bd 6b73 cdbd 7924 223d c0e0 57bc
00000330: 5a37 01be 40c9 093e e35b 57be 455b 9c3d
00000340: 40f7 343e 0e36 31be 04bf 673e 2088 28bd
00000350: 748b 3d3e 3444 6bbe 2b9d 10be 628a efbd
00000360: e8bf 5bbe 5783 2abe 6c4c 6bbe c830 1fbe
00000370: a5e5 39bc 90d8 4d3d c83c 573e 741b 23bd
00000380: 1701 74be 805a a93b 4c08 9e3e 02cf 60be
00000390: a4e6 d23d e072 4d3d c0c3 30be 00cd 6abd
000003a0: 95a9 973d 0415 41bb e0b4 a93d e834 a43d
000003b0: f852 d43d 94c5 7dbe 20b8 d9bc a040 40bd
000003c0: a692 323e a040 1c3d f94e cb3c fd6b f8bd
000003d0: e0d4 b33c 4ed7 60be 2baa 93bd 4a14 063e
000003e0: 9096 783e 9807 8abd ef67 163d e30f 50bd
000003f0: 7087 b0bd 324f 7b3e e418 4ebe 80f1 913c
-0.21249521 -0.03762399 0.27950305 -0.13377616 -0.28969443 -0.0670405 0.106603086 -0.026056327
-0.11048556 -0.06979777 -0.17033908 0.1504327 0.13253596 -0.2074256 0.051351443 0.11548367
0.09978531 0.22949885 0.05488945 0.12964731 -0.11841344 0.06398839 0.21843147 0.20663221
0.03277409 -0.07655099 -0.053696215 0.06585969 0.08308905 0.15634865 -0.16566122 0.12531768
-0.028070988 -0.18875682 -0.18547712 0.19951157 -0.186718 -0.047835708 0.059345245 -0.014401257
-0.006290497 -0.19024079 -0.042364955 -0.048100054 0.2492947 -0.18167138 0.15186286 0.044514358
0.15904774 -0.02449745 -0.2380449 -0.1690996 0.08623558 0.22103283 -0.20158395 0.17762649
-0.050965168 0.06008031 -0.29365373 -0.08916405 0.0017662644 -0.0036066705 0.21251172 -0.24548566
0.2390145 0.03025892 0.282903 0.050899882 0.12854275 0.11484647 -0.15397197 0.035804253
0.17196654 0.049723845 -0.19589488 0.10379821 -0.121818334 -0.19120587 -0.19491327 -0.17186578
0.18802692 0.1730708 -0.2713992 -0.15696758 0.20131451 -0.029586196 0.2256885 -0.27714255
-0.16801155 0.029334689 -0.20633763 0.053458273 -0.23219593 0.13236219 0.17421031 0.056709565
-0.100284114 0.21675533 -0.28429762 0.15067014 -0.121751755 0.09614617 0.10739553 -0.0020192266
0.104664795 0.12017804 0.07651961 -0.018725097 0.18241692 0.052868426 0.026722193 0.0708403
0.15687877 0.22061968 -0.14338529 -0.004467877 0.15145427 0.16505128 0.03703791 0.008153398
-0.090711474 0.26345715 0.099154584 0.27522537 -0.06626105 -0.25180542 0.07178402 -0.102495015
-0.1974197 0.18211766 -0.09282505 0.16244881 0.12027702 0.0061897635 0.1794706 0.103718914
0.0026816358 -0.019306058 0.018049438 -0.16530854 0.014188707 -0.119139 -0.18632858 0.050805904
-0.29227048 0.21109472 -0.0029896286 -0.18075418 0.20988654 -0.12171614 -0.24165866 0.18763204
-0.23503232 -0.088204965 -0.20506424 0.16232711 0.09105645 -0.041357875 -0.039922714 0.26573455
0.13173021 -0.020029902 0.27547196 -0.2490896 -0.03393476 -0.1875413 0.1157881 0.035686255
-0.122411184 0.16877872 -0.11544019 -0.0031255484 -0.09114331 0.21932739 0.01937735 0.20073038
-0.20121108 -0.23871809 -0.22206028 -0.21430247 0.20299655 0.17554082 -0.11106401 -0.09051636
-0.20825852 -0.251393 0.13868935 -0.10444061 -0.049405515 -0.10086948 -0.23769283 0.122986734
0.0039044023 -0.060163233 -0.037562355 0.254716 -0.055609554 0.0036358237 -0.16696346 0.184904
-0.06535557 -0.1003178 0.039585564 -0.013176143 -0.12618771 0.13455677 -0.21031146 0.07634596
0.17672443 -0.17305776 0.2263146 -0.041145444 0.18510228 -0.22975236 -0.14122455 -0.11696316
-0.21459925 -0.16651665 -0.22978371 -0.15545952 -0.011346255 0.05025536 0.2101928 -0.039821103
-0.2382854 0.005168259 0.30865705 -0.21953967 0.102978975 0.05015838 -0.17262173 -0.05732441
0.07405392 -0.002946199 0.08286452 0.080179036 0.103673875 -0.24782401 -0.026577055 -0.04693663
0.17438754 0.03814757 0.02481793 -0.12129972 0.021952093 -0.21957132 -0.07210191 0.13093677
0.24276185 -0.0673973 0.036720213 -0.0507964 -0.08619583 0.2454193 -0.20126683 0.017815351

sequential/dense_3/MatMul;StatefulPartitionedCall/sequential/dense_3/MatMul f4 [64, 32]
00000000: 9886 06be 2857 63be 827b 323d da87 8a3e
00000010: edf2 af3d 8b39 b8bd ac66 20be 0743 23be
00000020: 5a40 06be 5e63 3ebe 3a6e 5bbe 6e90 503e
00000030: 90e2 d1bd 48c4 53be c90b 533e 01d9 c83d
00000040: 0623 143e afb5 063e 0f12 893e 9375 3f3e
00000050: cfea c03d fd70 a33d 0798 d93d f964 983d
00000060: b842 b93d 6490 60be 7c72 9ebb f02a 613e
00000070: 2218 343e 7e08 3cbd 7205 c63d bc32 2e3e
00000080: d8f7 173e 8e37 febd 118b 413d 8a85 863e
00000090: 3c44 473d 8f2b 89bc ec87 0a3e b6a2 713e
000000a0: a39d 35be 19fe bc3d 6195 a63d d41f 48bc
000000b0: 4501 f2bd 5498 023e 9f79 d5bd 5655 703d
000000c0: 9c2f 8a3e 2541 5bbe 2e06 cbbd a97e 853e
000000d0: 01ef 043e 1f88 d93d 5d7a 2bbe bbed c5b9
000000e0: 4453 21be bb53 073e e891 ebbd 04f6 7d3e
000000f0: f709 a0bd 5713 233e ccec fa3d 038a e1bd
00000100: 858c e13d 9e13 e4bd ad48 6ebe 44ad a03d
00000110: 09d5 493e 96b5 903e e09d 24be ece9 563e
00000120: 2608 c93d d778 5b3e 4422 07be 5f1c 973d
00000130: 5ddc 043e 2f4b 903e 2a4a 9bbd efe7 4f3e
00000140: 4b05 493e a90f 923e 186f 28be 4a92 2fbe
00000150: 7bd4 f4bd c950 ffbd 8413 033e 1a52 36be
00000160: 2048 123d e55e 083e 1db4 24be 8df4 2cbe
00000170: 6eb0 eabd d92f 833e 675f 00be c7b3 13be
00000180: 6162 263e 89c7 35be a126 523e bfff 553e
00000190: 6c49 d0bd cc34 0ebd 9ac4 6f3e fbea 3f3e
000001a0: a6ba 27be 079f 8a3d 633f 023d 18e7 8c3e
000001b0: 6584 383d cd85 773d 6316 a4bb 3397 4f3e
000001c0: d18c 7cbd 0df7 6cbe 0528 f6bc 4390 11be
000001d0: 17d7 bd3d f962 89bd 9120 7e3e 100f 703e
000001e0: 1bf0 6f3d ccb4 fcbd d883 ddbd 7679 a13d
000001f0: c0b1 fcbd 3711 3a3e 9668 5b3e 870e c4bd
00000200: 8ec9 6fbe 52fe 36be f9d3 a0bd 905e 103e
00000210: c7ed 693b 68a9 8c3d 5c45 c43c c84c d73d
00000220: e830 f2b8 7a0b f33d 82e5 6abe d518 353e
00000230: 3e68 a13d 23eb 193d 9fa3 343e 8d31 b13b
00000240: c096 163e e47d 783e 582d 3abe 339a 483d
00000250: 9293 25bc 1fff 86be 7abf 473e ec1c 5ebe
00000260: d527 803c 4411 f3bd 9d28 043e 43bb 133e
00000270: 3a06 b43d fc60 6c3e d6ef 633e 9ab9 853c
00000280: b4f0 c23d 85d0 243e 2ed2 d43d 1d64 23be
00000290: 20a7 7bbd afb8 55bd 5ffd 03be a85b ae3c
000002a0: c7d6 003e 5ab5 1fbd 7726 6dbe 0c78 753d
000002b0: bfa1 2f3e bfb5 96bd b4a4 673d f034 aabd
000002c0: 9598 533e fe0d b6bd ce5d 8b3e 3839 613e
000002d0: bd3d 44be 5d90 783e 4b0e c73c d22a 73bd
000002e0: 1b2f 5f3e 09ee 0ebd 5b5f 07bd e780 3d3e
000002f0: fbe6 2a3e 2466 6bbd 7f28 cebd f348 093e
00000300: 7284 ff3d 8356 843e fe41 3bbc 8274 013e
00000310: 06d3 18be 9217 6dbd ee00 0b3e c9f4 0bbe
00000320: 6925 723e b42b c93d 7304 1fbe c5ac 3cbc
00000330: 230b 86bd 2422 253e e939 523e 8ba8 e63c
00000340: 8808 e63b 273d 593e e673 d4bc 6028 48be
00000350: f451 5e3e b29f 56be 672e 3a3e 5744 adbd
00000360: 6699 a63d 20d2 d73d 09e7 193e ab40 64be
00000370: f8f8 613c dcfe 2abe 7033 c8bd 8356 133e
00000380: afaa 1dbe 03c3 92bd 0420 283d 0396 71bc
00000390: 835f 3a3e db3c f4bd 5c66 8ebd be69 e13d
000003a0: ed71 20be e954 85bd ea1e c03d 7160 a8ba
000003b0: 1813 7d3e 96bb 39bc 7610 6d3e 309e 1f3e
000003c0: 7ed4 613d cd74 6fbe c234 42bd 3dda 18be
000003d0: 6c01 2e3e f4cf f6bd e65f 68be ac63 78be
000003e0: 02cc e0bb 6e22 5ebd 32e2 5fbe f5a4 74be
000003f0: 8dfc 813d 1488 5a3e c189 183e 78cf 5cbe
-0.13137281 -0.22201216 0.043574817 0.27056772 0.08591256 -0.089953505 -0.15664166 -0.15943538
-0.13110486 -0.18592593 -0.21428767 0.20367596 -0.102482915 -0.20680344 0.20609964 0.09807015
0.14466485 0.13155244 0.2677159 0.18697195 0.09419786 0.07980535 0.106247 0.07441134
0.09045929 -0.2193008 -0.004835425 0.21989036 0.17587331 -0.045906536 0.09669007 0.17011541
0.14840639 -0.1241294 0.047251765 0.26273757 0.048649058 -0.016744403 0.13528413 0.23597226
-0.17735915 0.09228153 0.081339605 -0.01221462 -0.118166484 0.12753421 -0.10423588 0.058675133
0.26989448 -0.2141157 -0.09913288 0.26073197 0.12981798 0.10621666 -0.16745897 -0.0003775189
-0.1575442 0.13215534 -0.11502439 0.24800879 -0.07814401 0.15925346 0.12252197 -0.11012652
0.1101313 -0.11136554 -0.23269911 0.07845548 0.19710173 0.2826354 -0.1607585 0.20987672
0.09816007 0.21432815 -0.13196665 0.07378458 0.12974687 0.2818236 -0.07582505 0.2030332
0.19630925 0.28527573 -0.16448629 -0.17145649 -0.1195459 -0.124665804 0.12800413 -0.17804757
0.035713315 0.1331745 -0.16084333 -0.16890164 -0.114594325 0.25622442 -0.12536393 -0.14424048
0.16248466 -0.17751898 0.20522548 0.2089834 -0.10170254 -0.03471832 0.23414841 0.18741982
-0.16379794 0.06768613 0.03179873 0.2752006 0.045048136 0.060430337 -0.0050075515 0.20272522
-0.06165773 -0.23141117 -0.03004838 -0.14215188 0.09269541 -0.06708331 0.2481711 0.23443246
0.05857859 -0.12339172 -0.10816163 0.07884495 -0.123385906 0.1817063 0.21426615 -0.09573083
-0.23416731 -0.17870453 -0.078529306 0.14098573 0.0035694705 0.06868249 0.023958854 0.10512692
-0.00011548569 0.11867423 -0.22939113 0.17685254 0.07881211 0.03757776 0.17640541 0.0054075182
0.14705944 0.24266773 -0.1818136 0.04897518 -0.010105984 -0.26366517 0.19506636 -0.2169072
0.015643993 -0.118685275 0.12906118 0.14426903 0.0879025 0.23083872 0.22259459 0.016323853
0.09518567 0.16095169 0.10391651 -0.15956159 -0.06143868 -0.05217808 -0.12889622 0.02128394
0.12581931 -0.03899131 -0.23159204 0.05992894 0.17151545 -0.07358884 0.056553558 -0.08310878
0.20663674 -0.088893875 0.27220005 0.21994483 -0.19164176 0.2427382 0.024298808 -0.05936701
0.21795313 -0.034894977 -0.033049922 0.18506204 0.16689675 -0.057470456 -0.10066318 0.13406734
0.12476434 0.25847253 -0.011429308 0.126421 -0.14924249 -0.057883807 0.13574573 -0.13667597
0.23647083 0.09822789 -0.15529041 -0.011515801 -0.06545093 0.16126305 0.20529903 0.02815654
0.00702006 0.21214734 -0.025934171 -0.19546652 0.2171095 -0.20959356 0.18181764 -0.084603004
0.08134727 0.10538125 0.15029539 -0.22290294 0.013792269 -0.16698784 -0.09775436 0.1438847
-0.15397142 -0.07166102 0.041046157 -0.014745238 0.18200497 -0.1192567 -0.06953117 0.11006497
-0.15668459 -0.06510336 0.093808964 -0.0012846125 0.24714315 -0.011336228 0.2315081 0.15587687
0.05513429 -0.233844 -0.047413595 -0.14927001 0.1699273 -0.12051383 -0.22692832 -0.24256772
-0.006860257 -0.054232053 -0.2186363 -0.23891051 0.06346998 0.21340972 0.14896299 -0.21563518

sequential/dense_4/MatMul;StatefulPartitionedCall/sequential/dense_4/MatMul f4 [128, 64]
00000000: 9c99 58bd 8f16 b93d 0e5c a3bc 0673 0ebe
00000010: f528 333e 6ba1 cabd a76b 993b 172c e33d
00000020: 4c64 29bd 189a 30be 2942 ddbc e8d6 5ebe
00000030: ac68 b03d 40de f93b 60b4 afbc b3f6 c73d
00000040: fa84 15bc 9ef4 e63d d308 6bbd 78a8 c03d
00000050: f300 3f3e 8c95 f03d b48d ca3b 24f2 72be
00000060: c617 2c3d bd71 ca3d 8c2d 0fbd e075 343d
00000070: f508 27be addd 1f3a 72dd 2c3e 0cd1 2b3e
00000080: 1300 a1bd c5b1 b73d e31d ae3c 9d07 193c
00000090: 513e aebd aa80 c33d 16fe 3e3e 908d 303c
000000a0: 6c84 34bd 0982 d0bd d905 bb3a 3734 773d
000000b0: c8e3 e93d af12 033e 6e83 c33d fc11 d3bd
000000c0: d40b d6bd 4188 0a3e 2079 13be 7263 1bbe
000000d0: 4ad3 243d 782c a2bd a6e8 c13d 6e5e 283e
000000e0: bfc0 fd3d 53f7 e2bc a84a d4bd 77b8 d6bd
000000f0: 4b78 08be dd5e 433e 445f bc3c 568b 0cbe
00000100: 7bc1 9abd e631 193e b6df debd a094 8a3d
00000110: 9aa4 39be 6933 36bd ff4f 17be 0c4f b4bd
00000120: 32ce ae3d 2dae a5bd 8135 df3d 5863 a9bd
00000130: 24e8 dd3d 688f 5fbd ce97 de3d 979c aa3b
00000140: 8467 25bd 5c1c af3c 1f86 debd f0a2 08be
00000150: acae 063c 3480 853d 0195 123e 89cf 4b3e
00000160: 3111 743e ff09 3b3e 775f 30be 3cfe 71ba
00000170: fc1d 113e ee8b 5ebc 37db 55be 7a40 c23c
00000180: 1619 cb3d 190a ffbb 15b0 123e 5f06 58bb
00000190: d138 c5bd d380 c43d c611 b23d 1f3b 11bc
000001a0: 4538 95bd c8d3 f5bd 8cc6 17be dca6 f33d
000001b0: 7910 b0bd a8fd 3d3d 6877 2cbe e3c2 033e
000001c0: 45ea 8f3d 0e3f b53d 382b ccbc cbba 843d
000001d0: e307 bb3d bad2 f9bd c36c 07bd 00bb cf3d
000001e0: 66c6 003e 4a56 613d b82f c1bd 7077 8b3b
000001f0: afce fc3d ec5c e13d 61b5 23be 72c8 b03c
00000200: 8e89 f03c db47 143e 30ec 3dbe 4128 3cbd
00000210: aec2 d3bd 864f 9cbd b437 993d bf82 71bc
00000220: ca04 983d 5369 dfbd 63de 37be 8556 583e
00000230: 8a81 02be 50c5 0dbd de13 da3b ee77 5b3d
00000240: 4431 0fbe 3d31 083e 4044 c23d 161e bcbd
00000250: b3ac 3bbd ba0f c1bd a4bb 453e 5d7d 303d
00000260: ac89 f6bc fc27 4c3e ccb8 5bbd 7a46 dcbd
00000270: 5786 bf3d db95 02be 959f 22be 71ae 20be
00000280: 05be 273e ebee 8c3d 9d15 d93d 4ed8 db3d
00000290: 612f 2f3c b37c 113e abb8 aa3d 4430 cfbd
000002a0: 2f01 3bbc ff82 eebd 91de c53d 0447 68bd
000002b0: 8b28 36bd e666 033d 0b00 273d 79bd 1f3e
000002c0: c4a2 1cbe fa8d bf3d 780d 91bd 1c8e c6bd
000002d0: d574 a83d 4621 60bd a789 e5bc c1d4 013d
000002e0: 935d ebbd 73bb b3bd b697 ab3d 4220 c13d
000002f0: 7a84 0ebe 10ba a03d 310b 043d 4eb0 033e
00000300: d0ab 95bc 0082 7e3c a7c3 9ebd 32af 2a3e
00000310: dbf5 adbd 0a6c 3e3e c556 073d 8079 763d
00000320: 9db7 eebd 8d3a 093e ffd4 173e 4da8 b53d
00000330: 928c 4d3c 9886 393d 9177 1abe 6ae9 58bd
00000340: c7a6 813d b044 2d3e 5d19 f63d e1a9 c4bc
00000350: 3110 2c3e eea3 b63c dac6 6abd 1449 91bd
00000360: 9161 6a3c 9081 573d d885 f83c b582 85bd
00000370: 6b63 043e fc89 04be 715a a8bd 2bf8 603d
00000380: 3933 00be 6425 7c3d 3bd8 da3d 2aba 24bb
00000390: 02fd 053e b141 d1ba aef7 353d 3338 b73d
000003a0: dc98 4c3b 128b 423e 1225 00be f5ff e43c
000003b0: efa2 dabd dcf2 f1bc 2ab4 dd3d 6040 893d
000003c0: e6b5 d4bd da18 d53d e07f 183c b010 15bc
000003d0: 4dfb 073d 7cde cc3d 7dc3 a7bd c9d3 c7bc
000003e0: 2e8e 03be 496a 2bbe 0e2e 013e 82ec 293e
000003f0: eae8 47bd 0838 e6bc a676 6f3d 4dda d33d
-0.05288087 0.09037506 -0.019941356 -0.13911065 0.17496093 -0.09894069 0.0046820226 0.11092394
-0.041355416 -0.17246282 -0.027009087 -0.21761668 0.086137146 0.007625371 -0.021448314 0.09763851
-0.009125942 0.11277126 -0.057381462 0.09407133 0.18652706 0.11747274 0.006181443 -0.23725182
0.04201486 0.09884975 -0.034955546 0.044057727 -0.1631201 0.0006098401 0.1688135 0.16778964
-0.07861342 0.08969454 0.021254485 0.009340194 -0.0850798 0.09546025 0.18651614 0.010775939
-0.0440716 -0.10181052 0.001426871 0.06035253 0.11420399 0.12800096 0.095465526 -0.103061646
-0.10451475 0.13528539 -0.14401674 -0.15174654 0.040240563 -0.07918638 0.09468202 0.16442272
0.12390279 -0.027705824 -0.10365802 -0.104844026 -0.13327138 0.19079156 0.022994645 -0.13725027
-0.07556435 0.14960441 -0.10882513 0.06766629 -0.18129197 -0.044482622 -0.1477661 -0.088041395
0.085354224 -0.08089862 0.10898877 -0.082709014 0.10835293 -0.054580122 0.10868798 0.0052066552
-0.040381923 0.021375827 -0.10865425 -0.13343406 0.008220356 0.065185934 0.14314653 0.19903387
0.23834683 0.18265532 -0.17223917 -0.0009231304 0.14171594 -0.0135831665 -0.20884405 0.023712385
0.09916894 -0.007783186 0.14324982 -0.0032962782 -0.096299775 0.09594884 0.08694796 -0.008864193
-0.07286123 -0.12003285 -0.14821833 0.1189706 -0.08596892 0.046384484 -0.16842425 0.12867312
0.07027105 0.08849917 -0.024922952 0.064809404 0.09132364 -0.12198396 -0.033062708 0.10143089
0.12575683 0.055013932 -0.0943293 0.0042561814 0.12344109 0.110040516 -0.1598716 0.021579955
0.029362466 0.14480536 -0.1854713 -0.045936827 -0.103398666 -0.076323554 0.07481328 -0.014740645
0.074227884 -0.10908761 -0.17955928 0.21126755 -0.12744728 -0.034612 0.0066552004 0.05358117
-0.13983637 0.13300033 0.09485674 -0.09185426 -0.045818996 -0.09426828 0.1930986 0.043088306
-0.030094944 0.19937128 -0.053643033 -0.1075563 0.09351795 -0.12752478 -0.15881188 -0.15691544
0.1638108 0.068815075 0.105998255 0.10734616 0.010692448 0.14207725 0.08336004 -0.10116628
-0.011413856 -0.11646079 0.09661592 -0.05670835 -0.04447226 0.032080553 0.040771525 0.15599622
-0.15296465 0.09353252 -0.07082647 -0.09695074 0.08225409 -0.054719232 -0.02801974 0.03169704
-0.11492457 -0.087759875 0.08378546 0.09429981 -0.13917723 0.078479886 0.032237235 0.12860224
-0.018270403 0.015533924 -0.077521615 0.16668394 -0.08494159 0.18595901 0.033041734 0.060174465
-0.11656115 0.13401242 0.14827345 0.088699915 0.012545722 0.045294374 -0.15084673 -0.052956976
0.063306384 0.16920733 0.120165564 -0.024006786 0.16803052 0.022294965 -0.057318546 -0.07094017
0.014305488 0.052613795 0.03033726 -0.06519071 0.1292855 -0.12943262 -0.08220375 0.05492417
-0.1251954 0.061559096 0.10685774 -0.0025135376 0.13084796 -0.0015965012 0.04442566 0.08946266
0.003121904 0.18998364 -0.12514141 0.027954081 -0.10675608 -0.02953475 0.10825379 0.06701732
-0.10386257 0.10405131 0.0093078315 -0.009098217 0.033198643 0.10003373 -0.08191583 -0.02439298
-0.12847206 -0.16739763 0.12615225 0.16594127 -0.04880611 -0.02810289 0.05846276 0.10344372

sequential/dense_5/MatMul;StatefulPartitionedCall/sequential/dense_5/MatMul f4 [1, 128]
00000000: 74c5 4e3e 604f 39bc 1ef3 9fbd 78bd 0bbe
00000010: 3f64 5abd 7fb7 4f3e a880 b83d f784 0ebe
00000020: 4508 e9bd 4935 113e b0f9 33bd 55c5 383d
00000030: 5108 e33d 6349 603d edb9 e23d f01e 05be
00000040: eea6 ea3d ee24 403d 4b9a 4fbd 3018 e33d
00000050: 4e5b 3c3e 66aa fdbd c072 71bd 4292 d43d
00000060: 24a8 52be 9295 c6bc dabd 18be 3b80 66be
00000070: ca2a 993d 3463 533e 1d2e 17bd 569f 883d
00000080: bea6 3c3d c084 00bd 2062 13be f484 0fbe
00000090: fdc5 85be e246 2b3e 5511 04be 07be 01be
000000a0: 95a7 2d3e 95d7 95bd 4c63 5a3d ede2 3a3d
000000b0: c462 5cbe 416a 003e e390 763d 75eb 2fbe
000000c0: 9f32 31be 6143 c2bd 5296 313e 8fe2 92be
000000d0: ae94 35be 70f0 22be 60c0 003e adb2 8e3d
000000e0: 152e 70be eb85 f93d 616c 97bd 7cc4 563e
000000f0: 0696 b53d ed71 583e b0cd 533e 41a5 22be
00000100: 16e8 36bd d0f1 27bd d493 313e 13dc 5e3e
00000110: bfea d23d e34e e0bd 1f6d 893d 3942 57bd
00000120: a8c4 82bd 7905 70be bddf 873e e608 c5bd
00000130: 1d85 18bc 9196 123e 4c8e 1ebe 1a28 a5bd
00000140: 8077 423e d100 adbd 418c f8bd 2eeb 223e
00000150: f6f6 dd3d 6fac 5a3e 5392 61be 54f7 343d
00000160: 1844 27be 9f60 473e 2f95 fd3d 68ee f6bd
00000170: cb08 36be c7c4 16be 7adc 163e 0a26 e13d
00000180: 2f15 5c3e c877 2cbd 91d0 503e 4e58 81bd
00000190: 257c 913d 5a07 823e c4a6 393e 521b 023d
000001a0: bb6b 60be 908f af3d ebd4 29be ab95 733d
000001b0: ee01 093e e97c 223d dfd9 0d3e 65c7 3dbe
000001c0: 79bb 6d3c 5da2 4b3e 9261 ad3d 8364 2dbe
000001d0: b192 c73d 3492 523e 01bc 3dbe 9421 5f3e
000001e0: c813 853d 25d2 2b3c 59ce 393e 86c9 14be
000001f0: 279a 9bbd 9b51 ef3c 6374 ae3d b886 2d3d
0.2019251 -0.011310428 -0.07810043 -0.13646495 -0.05331826 0.20284842 0.09008914 -0.1391791
-0.113785304 0.14180483 -0.043939292 0.045110065 0.110855706 0.054757487 0.11070619 -0.13000083
0.114576206 0.04691022 -0.050684255 0.11088598 0.18394205 -0.123860165 -0.058947325 0.10379459
-0.20571953 -0.024241243 -0.14916173 -0.22509854 0.074788645 0.20643312 -0.03690921 0.06671016
0.046057455 -0.0313766 -0.143929 -0.14015561 -0.26127616 0.16726258 -0.12897237 -0.12670146
0.16958459 -0.0731651 0.053317353 0.04562657 -0.21522051 0.12540533 0.06019677 -0.17179663
-0.17304467 -0.09485508 0.17342499 -0.28688475 -0.17732498 -0.15912032 0.12573385 0.069676735
-0.23455079 0.12183746 -0.073937185 0.2097339 0.08866505 0.21137209 0.20683932 -0.15883352
-0.04465493 -0.041002095 0.17341548 0.21763639 0.102986805 -0.109525464 0.06710266 -0.05255339
-0.063851655 -0.23439588 0.26537886 -0.09620838 -0.00930908 0.14315249 -0.1548397 -0.080642894
0.18990898 -0.08447421 -0.12136126 0.15910026 0.1083812 0.2135484 -0.22028475 0.044181183
-0.1633457 0.19470452 0.1238197 -0.12057191 -0.17776792 -0.14723502 0.14732543 0.109935835
0.21492456 -0.04210642 0.20392062 -0.06315671 0.07103757 0.25396234 0.18130022 0.031764336
-0.21916096 0.08572304 -0.16585128 0.059468906 0.13379642 0.039669905 0.13852642 -0.18533094
0.014510029 0.19886155 0.08465876 -0.16932873 0.09744776 0.20563585 -0.18528749 0.21790153
0.064979136 0.010487114 0.18145122 -0.1453 -0.075977616 0.029213717 0.08518293 0.042364806
