ESP32/ESP32_EloquentTinyML_Gender/Gender_Classification.tflite (tflite, 91292 bytes, 11 tensors)

sequential_5/dense_32/BiasAdd/ReadVariableOp f4 [128]
0.02054123 -0.0018715644 0.024310727 0.00024603322 0.012815458 -0.0038472035 -0.0036167668 -0.010001878
-0.007342185 0.031910785 -0.0029864353 -0.0126607735 0.009322569 0.0016646578 -0.012659876 0.020092683
0.01202298 0.009805885 -0.028521083 0.01101982 0.05089309 0.024326032 0.034345906 -0.016408162
0.011377782 -0.010832428 0.028467903 0.015201886 0.020063631 0.0074751093 0.017827105 0.021613132
0.041702002 0.021115199 0.020168243 0.0038773932 -0.028746054 0.04089081 0.015007229 0.017775021
0.046779387 0.05266208 0.034179963 0.031664602 -0.0047544865 0.0069663133 0.013277821 -0.02237286
0.017292215 0.05010102 0.004886127 0.015772589 0.018912459 0.020226875 0.036948383 0.018084124
-0.030558625 0.029526189 0.054954927 0.013404067 0.0053308606 0.03196832 0.0006938888 0.009870737
0.028989164 -0.0061987764 -0.014562635 0.018683018 -0.0061081774 0.026671931 0.008177356 0.020356236
0.04730175 0.02466389 -0.00067199336 0.042774506 0.007955368 0.022099873 0.012745516 0.03595764
0.023833206 0.009030075 0.019776912 0.02792586 0.02682601 0.006646391 0.011315921 -0.021663198
0.020319639 0.0090521155 0.023458648 -0.0038689035 0.029825164 0.0031116824 0.027425174 -0.015964836
0.014314211 0.03348934 0.029466828 0.0079181325 -0.037738636 -0.0051587922 -0.024358522 0.021551372
-0.026748098 -0.025913527 0.041004535 0.035937466 0.022756305 -0.023886738 0.002676871 -0.021952802
-0.014065229 0.059640262 0.0071938117 0.052109733 -0.025755955 -0.008490752 0.03172059 -0.008591814
0.024656447 -0.012890311 0.018375788 -0.016573757 0.0186228 0.0021479921 0.02201002 0.00066178734
00000000: 1546 a83c 484f f5ba 4a27 c73c 05fe 8039
00000010: edf7 513c 5d21 7cbb 4707 6dbb ebde 23bc
00000020: b696 f0bb e2b4 023d 12b8 43bb 226f 4fbc
00000030: b0bd 183c a630 da3a 5e6b 4fbc 6999 a43c
00000040: 08fc 443c dda8 203c 0ca5 e9bc 7a8c 343c
00000050: 4675 503d 6347 c73c 4bae 0c3d 696a 86bc
00000060: e069 3a3c 7f7a 31bc 8535 e93c 5511 793c
00000070: 7c5c a43c c3f1 f43b 260a 923c 060e b13c
00000080: b8cf 2a3d c8f9 ac3c df37 a53c dd1b 7e3b
00000090: d87c ebbc 1f7d 273d e1e0 753c ec9c 913c
000000a0: be9b 3f3d 31b4 573d 4a00 0c3d beb2 013d
000000b0: 86cb 9bbb ac45 e43b 388b 593c 4a47 b7bc
000000c0: 67a8 8d3c ba36 4d3d ce1b a03b 8435 813c
000000d0: 4dee 9a3c d5b2 a53c 3057 173d 2825 943c
000000e0: 1556 fabc e8e0 f13c 6b18 613d bb9c 5b3c
000000f0: 80ae ae3b 37f1 023d 17e6 353a dfb8 213c
00000100: af7a ed3c 1b1f cbbb 1e98 6ebc 210d 993c
00000110: 1b27 c8bb 187f da3c 51fa 053c 1fc2 a63c
00000120: 7bbf 413d ed0b ca3c b628 30ba 5234 2f3d
00000130: 3b57 023c cb0a b53c 92d2 503c 5148 133d
00000140: db3d c33c e1f2 133c 3103 a23c c6c4 e43c
00000150: 38c2 db3c f8c9 d93b 6a66 393c 0577 b1bc
00000160: 5f75 a63c 534f 143c 5a2c c03c 6e8d 7dbb
00000170: e753 f43c 5eed 4b3b c2aa e03c b0c8 82bc
00000180: 2786 6a3c 1e2c 093d 6b64 f13c 0ebb 013c
00000190: d493 1abd 160b a9bb 868b c7bc 818c b03c
000001a0: d41e dbbc 9b48 d4bc 5ff4 273d 2a33 133d
000001b0: 6e6b ba3c 1fae c3bc 716e 2f3b 5dd6 b3bc
000001c0: d971 66bc 5949 743d 11ba eb3b 0471 553d
000001d0: 27fe d2bc cc1c 0bbc 73ed 013d aec4 0cbc
000001e0: 51fc c93c e231 53bc d288 963c b0c5 87bc
000001f0: d88e 983c 54c5 0c3b 5c4e b43c cc7b 2d3a

sequential_5/dense_31/BiasAdd/ReadVariableOp f4 [64]
0.021242326 0.02625033 -0.024287991 0.03680448 -0.0059423307 0.012421538 -0.017857732 -0.0019447862
-0.03141641 0.0057139713 -0.007632379 0.004417855 0.013013716 0.027745502 -0.0009252122 0.060349446
0.007696489 0.011818731 0.015168973 0.0011479388 -0.014334593 0.037663504 0.000110831264 -0.006034117
-0.016147288 0.0046165036 0.02080196 0.0069261943 0.023996726 -0.0071868263 0.012748793 0.022337291
-0.0032279815 0.033187285 0.0024604881 0.030747922 0.03734478 0.018327685 -0.006844178 -0.00010298925
0.05350945 0.036090318 0.013417104 0.012749737 0.00038746936 0.032958277 0.017317437 0.027003426
-0.011406036 0.0010299605 0.049121186 -0.011711512 -0.02901223 0.012749969 0.021096013 -0.006353292
0.02072314 0.031500954 0.0047747106 0.0018241465 0.020571452 0.005398929 -0.008306273 0.021450948
00000000: 6304 ae3c ef0a d73c 9cf7 c6bc 4bc0 163d
00000010: e2b7 c2bb b583 4b3c 614a 92bc 32e8 feba
00000020: 7eae 00bd 443c bb3b 0919 fabb a7c3 903b
00000030: 7b37 553c 894a e33c f189 72ba fb30 773d
00000040: d432 fc3b 5aa3 413c 4987 783c 6f76 963a
00000050: a4db 6abc 0c45 1a3d 156e e838 d8b9 c5bb
00000060: 5147 84bc 0a46 973b df68 aa3c 21f5 e23b
00000070: c894 c43c 787f ebbb 50e0 503c b2fc b63c
00000080: 8b8c 53bb 64ef 073d 2440 213b 11e3 fb3c
00000090: d7f6 183d f123 963c 2045 e0bb effb d7b8
000000a0: ba2c 5b3d 71d3 133d 6ad3 5b3c 46e4 503c
000000b0: 4225 cb39 42ff 063d 4cdd 8d3c 4a36 dd3c
000000c0: 62e0 3abc bdff 863a 4c33 493d a4e1 3fbc
000000d0: 0eab edbc 3fe5 503c 8cd1 ac3c 472f d0bb
000000e0: 93c3 a93c 2507 013d 2d75 9c3b 3318 ef3a
000000f0: 7685 a83c 80e9 b03b 0917 08bc e6b9 af3c

sequential_5/dense_30/BiasAdd/ReadVariableOp f4 [32]
0.0015021367 -0.006735968 -0.0061488356 0.004813139 -0.0032911366 -0.0054956693 0.013310229 -0.006992408
-0.015187418 -0.00013930295 0.007114154 -0.010562634 -0.0031121585 0.0041544354 0.0033827685 -0.020563947
-0.0033128567 0.007588946 0.02310837 -0.014442189 -0.019806799 -0.013524846 -0.0063396585 -0.0072590904
-0.0057045463 -0.00592355 4.102719e-05 -0.009898904 -0.0018787145 0.0031453287 -0.0071873073 -0.011793209
00000000: 58e3 c43a 65b9 dcbb 2c7c c9bb 89b7 9d3b
00000010: 1cb0 57bb 0415 b4bb 2613 5a3c 9220 e5bb
00000020: a6d4 78bc da11 12b9 d91d e93b e60e 2dbc
00000030: 5bf5 4bbb ee21 883b 70b1 5d3b b975 a8bc
00000040: 831c 59bb b1ac f83b c44d bd3c ee9e 6cbc
00000050: de41 a2bc 5197 5dbc e9bc cfbb aadd edbb
00000060: 34ed babb 571a c2bb 9c14 2c38 032f 22bc
00000070: 333f f6ba dc21 4e3b 8183 ebbb 4e38 41bc

sequential_5/dense_29/BiasAdd/ReadVariableOp f4 [64]
0.0 0.0 -0.0059785047 0.0 0.0 0.003999362 0.0 0.002268063
-0.0019261464 0.0015697716 -0.009174239 -0.0028327531 0.005273393 0.004752301 0.0035041776 0.0073590754
0.01137064 -0.008847368 -0.016725956 0.006917004 0.016940124 0.0 -0.00012763633 0.0
-0.0070834737 -0.005975504 0.0 -0.0021392973 -0.0035997685 -0.006009862 -0.0024530047 0.0019613872
0.0043760766 0.0 -0.0018172212 0.005844581 -0.00050688075 0.0025563585 0.0009582046 0.0
0.000678457 0.0 -0.017525265 0.014758682 0.012923024 -0.00047208785 0.0 0.0
-0.0053362544 0.0055885483 0.0 0.010302561 -0.0047995597 -0.005983606 0.0025353048 -0.00085253385
-0.0029305192 0.015897604 -0.01129742 0.0017780939 0.0 0.0108673 0.0 0.014854174
00000000: 0000 0000 0000 0000 55e7 c3bb 0000 0000
00000010: 0000 0000 140d 833b 0000 0000 c8a3 143b
00000020: c076 fcba cbc0 cd3a 8c4f 16bc b6a5 39bb
00000030: 6dcc ac3b 31b9 9b3b 58a6 653b 6624 f13b
00000040: ec4b 3a3c 8df4 10bc df04 89bc 09a8 e23b
00000050: 04c6 8a3c 0000 0000 1ed6 05b9 0000 0000
00000060: 7c1c e8bb 29ce c3bb 0000 0000 7433 0cbb
00000070: 18ea 6bbb 60ee c4bb 97c2 20bb 9e8a 003b
00000080: 3165 8f3b 0000 0000 d32f eeba e683 bf3b
00000090: 31e0 04ba 9488 273b 0630 7b3a 0000 0000
000000a0: 7bda 313a 0000 0000 2591 8fbc 66ce 713c
000000b0: 17bb 533c 8f82 f7b9 0000 0000 0000 0000
000000c0: bfdb aebb 2420 b73b 0000 0000 13cc 283c
000000d0: a045 9dbb 2012 c4bb 5b27 263b 947c 5fba
000000e0: f40d 40bb b13b 823c d018 39bc ee0e e93a
000000f0: 0000 0000 c30c 323c 0000 0000 ec5e 733c

sequential_5/dense_28/BiasAdd/ReadVariableOp f4 [128]
0.008768088 0.014291493 -0.0011781426 -0.008967508 -0.0032736866 -0.0016961058 0.012093166 -0.011293716
0.0031971245 -0.008139789 -0.0026853583 -0.004239474 0.010350352 -0.0048223804 0.022950921 0.00417588
-0.005007334 -0.0013648209 0.0025633874 0.003135719 0.002025264 -0.0016648063 0.012208293 -0.0028774957
-0.0073413793 -0.0074919984 -0.002822526 -0.009070275 0.003377784 -0.0031494927 -0.0036744222 0.0018638805
-0.0016340805 0.008421912 0.005216355 -0.01029426 -0.0051895836 0.0028712703 0.006463923 0.0028097974
-0.01388058 0.013864924 0.0054362416 0.0022345865 -0.004766803 -0.017048549 -0.003677771 0.0030536347
-0.00970081 -0.01047848 -0.018245887 -0.00039789523 -0.001837135 0.0013915418 -0.011658098 -0.007398924
-0.008632553 0.0072782007 -0.020193348 -0.009294775 -0.0058989604 -0.00088472187 0.0040466785 -0.016247991
-0.02528373 -0.0048976857 -0.001218403 0.00993701 -0.011585176 -0.0011356935 -0.0036968738 0.0053282026
-0.003261443 -0.017332826 -0.0041124863 -0.0046242164 -0.010413865 -0.021535387 -0.027062014 -0.009880377
-0.022706008 -0.0025579561 -0.009614083 0.0009742142 -0.010200825 -0.000635742 -0.011906264 -0.01863401
0.0042090802 0.0044534425 -0.0045937463 -0.0010502352 -0.005127967 0.0031988434 -0.008121934 -4.438561e-05
-0.019426215 -0.0046582385 -0.010923751 -0.01134951 0.014252535 0.0042083478 -0.0035547868 -0.00902147
-0.011912233 -0.020911135 -0.022653436 -0.009130023 0.002529335 -0.0036321033 -0.0076202187 -6.329639e-05
-0.0029309122 -0.0016814338 -0.0050166934 0.0012600243 -0.0052602054 0.0003531727 0.0025306132 0.004603536
-0.00021754071 -0.0014810788 0.0022777931 -0.0066154744 0.00093373255 -0.00776505 -0.0020147879 -0.003024591
00000000: 07a8 0f3c de26 6a3c e86b 9aba 74ec 12bc
00000010: 598b 56bb de4f deba 6a22 463c 4709 39bc
00000020: d986 513b c05c 05bc d6fc 2fbb 49eb 8abb
00000030: 8694 293c 0f05 9ebb 9203 bc3c d2d5 883b
00000040: 9014 a4bb cae3 b2ba 81fe 273b a380 4d3b
00000050: 4bba 043b a135 daba 4b05 483c 5e94 3cbb
00000060: f48f f0bb 707f f5bb 21fa 38bb 7e9b 14bc
00000070: d05d 5d3b b867 4ebb 93ce 70bb 744d f43a
00000080: a52e d6ba 0ffc 093c f5ed aa3b 42a9 28bc
00000090: 620d aabb ec2b 3c3b 51cf d33b 9424 383b
000000a0: 5f6b 63bc b529 633c 8022 b23b 2472 123b
000000b0: d732 9cbb 66a9 8bbc c206 71bb 7d1f 483b
000000c0: 25f0 1ebc eead 2bbc 6678 95bc 989c d0b9
000000d0: 05cc f0ba 6564 b63a 9b01 3fbc ac72 f2bb
000000e0: 8d6f 0dbc f97d ee3b 856c a5bc 1d49 18bc
000000f0: 114c c1bb aeec 67ba 009a 843b 821a 85bc
00000100: d31f cfbc c47c a0bb d2b2 9fba d7ce 223c
00000110: c0cf 3dbc 8ddb 94ba 4047 72bb 3498 ae3b
00000120: efbd 55bb 92fd 8dbc 09c2 86bb bd86 97bb
00000130: ea9e 2abc fb6a b0bc 28b1 ddbc 4ee1 21bc
00000140: f301 babc 62a3 27bb 6384 1dbc 6962 7f3a
00000150: 5c21 27bc eca7 26ba 7e12 43bc 5aa6 98bc
00000160: 53ec 893b 2fee 913b 2387 96bb 0ca8 89ba
00000170: 8108 a8bb b0a3 513b dc11 05bc b02a 3ab8
00000180: ba23 9fbc 23a4 98bb 88f9 32bc 4cf3 39bc
00000190: 7783 693c 2ee6 893b 6df7 68bb cace 13bc
000001a0: 872b 43bc d44d abbc b393 b9bc 1896 15bc
000001b0: 33c3 253b 9508 6ebb 07b3 f9bb febd 84b8
000001c0: 8c14 40bb 8e63 dcba 1363 a4bb 6627 a53a
000001d0: cd5d acbb 0a2a b939 a5d8 253b 42d9 963b
000001e0: a41b 64b9 c220 c2ba 0747 153b 9fc6 d8bb
000001f0: bbc5 743a f671 febb 880a 04bb 3738 46bb

sequential_5/dense_28/MatMul f4 [128, 7]
0.2800705 -0.060446765 -0.026196396 -0.1530427 0.008426176 -0.239684 -0.12853412 0.094363414
0.2841004 0.22482477 0.047101166 -0.017136188 0.032031335 0.024566416 -0.06928533 -0.07082251
0.078439645 -0.16098358 0.04597986 0.16560654 -0.12772122 -0.110606484 0.177477 0.33301774
-0.04611312 -0.12702997 -0.08898144 -0.1298561 -0.106691785 -0.31568676 -0.20587173 0.1475684
0.07492275 -0.19857255 0.14622585 -0.2407055 -0.14702083 -0.28929967 0.19589677 0.026167722
0.18801542 0.026668373 0.021175807 0.22529806 0.16005312 0.1026207 0.16501378 0.15027069
0.053825904 0.053603325 0.21228512 0.3453695 0.04255931 0.008723349 0.07259699 0.13447219
0.11363318 -0.010955368 0.046103172 0.013429523 -0.076023415 0.1398142 0.11525637 0.15332493
0.30806082 0.25644958 -0.16688961 0.09927162 -0.0063733933 0.13371405 -0.22727793 -0.29166168
0.00829637 -0.19339384 0.09886874 -0.13851625 0.166155 -0.22770932 -0.22020133 0.066808276
-0.08154101 -0.073067315 0.087638855 0.23394991 -9.3392526e-05 0.22737274 0.20817888 -0.15599525
0.27370182 -0.14395091 -0.07234826 0.104335874 0.2817087 0.23739082 0.0070257545 0.049648937
0.028648503 -0.08807998 -0.013625057 0.07094864 -0.11127716 0.083445646 -0.20144704 -0.054031584
-0.1317697 0.13232079 0.15730141 0.16183925 -0.1491136 0.03586933 -0.08802127 0.1548926
0.292817 0.1100349 0.25901285 -0.17378406 0.066148825 -0.19242486 0.043998193 -0.07826869
-0.1492472 -0.18972954 0.19728978 0.022461861 0.21756692 0.098613776 0.23089036 0.35291514
0.1500275 -0.08908708 0.22630078 0.10088926 0.08404133 -0.20431729 -0.18649206 -0.24049471
-0.029238505 -0.17039658 0.08233381 -0.021412034 -0.07471099 0.010320863 0.35413694 0.124957815
0.14016497 -0.1289633 0.06827791 0.004118456 -0.23672812 -0.3233447 -0.03680707 -0.118700296
-0.14087404 -0.07320746 0.22792427 0.29816425 0.19472213 0.006202807 0.09594583 0.15499617
0.045539755 0.2182386 0.12420007 -0.014326388 0.032884356 -0.03370468 -0.19566444 0.019142004
0.038111314 0.28993443 -0.033308245 -0.1381066 0.04864418 -0.096182905 -0.19126913 -0.18391295
-0.10934811 0.082315944 0.16084857 -0.20844045 -0.010698165 -0.017127087 0.10871889 -0.14455311
0.04169101 -0.08319094 -0.09922569 -0.06556323 0.09226387 0.026474826 -0.24801476 -0.31377938
-0.1609427 0.0008964929 0.010388443 -0.15795104 0.11065699 0.10357503 0.17135628 -0.020169131
0.06743656 -0.18458474 -0.014174044 0.21573918 0.16914076 0.109659374 0.13188842 0.13619967
0.16960937 0.010129937 0.13505141 0.21269341 0.21432498 -0.09274485 -0.06743017 0.05741491
0.12959018 0.09158885 -0.30469632 -0.078146994 0.028330691 -0.0052575204 -0.12104109 -0.1375805
-0.08953493 -0.07511339 0.1735327 0.048533916 0.22357692 0.16379361 -0.022492792 0.036192365
0.2143141 0.16666843 -0.06996629 0.1126579 -0.14487165 0.16914298 0.2076944 0.056222413
0.3050711 0.081759006 0.17507812 -0.1678451 -0.12301024 -0.11134263 0.14773847 0.33318558
0.16772301 -0.116940014 -0.051349953 -0.14302225 -0.27659485 -0.04186855 -0.32583904 0.097016275
00000000: 6765 8f3e 0797 77bd d399 d6bc 3ab7 1cbe
00000010: f20d 0a3c b96f 75be 739e 03be 9b41 c13d
00000020: 9c75 913e 7738 663e 27ed 403d 3161 8cbc
00000030: 4a33 033d 823f c93c 78e5 8dbd 640b 91bd
00000040: f7a4 a03d e1d8 24be 6155 3c3d c394 293e
00000050: 5ac9 02be a785 e2bd 88bc 353e 4d81 aa3e
00000060: 1ce1 3cbd 2514 02be e73b b6bd fff8 04be
00000070: 3981 dabd b2a1 a1be 0ad0 52be 2c1c 173e
00000080: 1971 993d 9a56 4bbe 3bbc 153e 817b 76be
00000090: a18c 16be 161f 94be 2a99 483e b15d d63c
000000a0: 1d87 403e a277 da3c e378 ad3c 89b4 663e
000000b0: f7e4 233e cd2a d23d 5ff9 283e 8fe0 193e
000000c0: 8d78 5c3d 298f 5b3d 4561 593e 45d4 b03e
000000d0: ac52 2e3d 61ec 0e3c bbad 943d 14b3 093e
000000e0: 83b8 e83d 257e 33bc aed6 3c3d 8107 5c3c
000000f0: 2ab2 9bbd 742b 0f3e 880b ec3d 3601 1d3e
00000100: 26ba 9d3e 5c4d 833e 1ce5 2abe eb4e cb3d
00000110: e6d7 d0bb 56ec 083e 8cbb 68be ae54 95be
00000120: 7fed 073c 0909 46be b27b ca3d 34d7 0dbe
00000130: 8924 2a3e a22c 69be 757c 61be c7d2 883d
00000140: f9fe a6bd 51a4 95bd 007c b33d 9190 6f3e
00000150: bbdb c3b8 66d4 683e d82c 553e 38bd 1fbe
00000160: a522 8c3e de67 13be 532b 94bd 0cae d53d
00000170: 1f3c 903e 9416 733e 4d38 e63b af5c 4b3d
00000180: 44b0 ea3c 4763 b4bd a23b 5fbc 854d 913d
00000190: 48e5 e3bd 8de5 aa3d 2248 4ebe 3950 5dbd
000001a0: a3ee 06be 1a7f 073e 9f13 213e 30b9 253e
000001b0: 3cb1 18be b8eb 123d 7f44 b4bd 2a9c 1e3e
000001c0: 1cec 953e fa59 e13d 559d 843e 73f4 31be
000001d0: 0979 873d 060b 45be 7337 343d 564b a0bd
000001e0: 42d4 18be 7648 42be 5506 4a3e f001 b83c
000001f0: ddc9 5e3e 05f6 c93d 866e 6c3e 4bb1 b43e
00000200: cfa0 193e 4973 b6bd 64bb 673e 079f ce3d
00000210: dc1d ac3d 8d38 51be c6f7 3ebe 3f44 76be
00000220: 9785 efbc 717c 2ebe a19e a83d 4a68 afbc
00000230: 1302 99bd d618 293c 7051 b53e e2e9 ff3d
00000240: 6887 0f3e f50e 04be 4ad5 8b3d 1df4 863b
00000250: db68 72be 708d a5be 03c3 16bd 2419 f3bd
00000260: 4941 10be cbed 95bd fb64 693e fca8 983e
00000270: 3d65 473e eb40 cb3b 3f7f c43d 51b7 1e3e
00000280: e587 3a3d f179 5f3e 9b5c fe3d 3ab9 6abc
00000290: bfb1 063d eb0d 0abd 425c 48be b1cf 9c3c
000002a0: 9c1a 1c3d 4972 943e 3a6e 08bd d16b 0dbe
000002b0: 1f3f 473d 8bfb c4bd 0edc 43be ad53 3cbe
000002c0: e7f1 dfbd 4395 a83d 7db5 243e 6a71 55be
000002d0: 5b47 2fbc 1b4e 8cbc 02a8 de3d bb05 14be
000002e0: 31c4 2a3d 0360 aabd d736 cbbd 0446 86bd
000002f0: d7f4 bc3d bce1 d83c 95f7 7dbe b1a7 a0be
00000300: 2ace 24be 9f02 6b3a 4a34 2a3c ebbd 21be
00000310: 22a0 e23d 251f d43d 0578 2f3e bc39 a5bc
00000320: 2e1c 8a3d c803 3dbe 403a 68bc bbea 5c3e
00000330: 3c33 2d3e 1895 e03d c20d 073e ed77 0b3e
00000340: 14ae 2d3e 09f8 253c eb4a 0a3e 4dcc 593e
00000350: 0278 5b3e 03f1 bdbd d418 8abd e62b 6b3d
00000360: 4ab3 043e ef92 bb3d 2801 9cbe 880b a0bd
00000370: c415 e83c 4747 acbb 64e4 f7bd e7e1 0cbe
00000380: 175e b7bd 0dd5 99bd 8eb2 313e 80cb 463d
00000390: 59f1 643e 83b9 273e ce42 b8bc 723e 143d
000003a0: 2875 5b3e 21ab 2a3e 7c4a 8fbd 2fb9 e63d
000003b0: 3c59 14be d133 2d3e d7ad 543e 7949 663d
000003c0: 4732 9c3e 4471 a73d ae47 333e 96df 2bbe
000003d0: cbec fbbd 9b07 e4bd c148 173e 4d97 aa3e
000003e0: 95bf 2b3e 3f7e efbd 5454 52bd 6d74 12be
000003f0: d79d 8dbe 5b7e 2bbd 60d4 a6be 78b0 c63d

sequential_5/dense_29/MatMul f4 [64, 128]
-0.104185954 0.13848932 -0.11675002 -0.08011863 -0.15105489 0.076306626 -0.102671705 -0.16759028
-0.1032312 0.07965855 -0.041622788 -0.16561495 -0.14149502 -0.06805519 0.10551657 -0.104775086
0.012523845 0.14923538 -0.06362623 0.050916046 0.0705695 -0.14345299 0.09149124 0.10884027
-0.027027726 0.008725405 0.08753897 0.17159356 0.047084898 -0.026722744 0.1181729 -0.11010008
-0.01785028 0.16570632 0.11739756 -0.028857604 -0.013646349 0.15452223 0.069118634 -0.047032595
-0.08214623 -0.09692932 -0.10745929 0.064943194 -0.05375527 -0.124952 0.0083563775 -0.1320124
0.010274857 -0.138652 -0.10443871 -0.13923822 -0.16129969 0.094327465 0.0013484508 0.06316219
-0.060516424 -0.01390627 0.03333959 -0.04082875 -0.14606002 -0.03768426 -0.14945513 -0.0589784
-0.10940327 -0.05895126 -0.10004022 -0.11371439 0.0029467791 -0.081943884 0.09046672 -0.105199836
-0.010891467 -0.13101402 -0.116764635 0.11814155 0.063091934 -0.13354987 -0.05451134 0.04942742
-0.056528278 -0.040822208 0.10325076 -0.12829033 0.013438061 0.17522897 -0.048337802 -0.03788884
-0.06124384 0.14486368 -0.04484327 0.12258412 0.06831616 0.058358967 -0.156192 0.0011616051
-0.1507707 0.08849679 0.03686163 -0.054540932 0.066838965 -0.1544491 -0.17182903 0.043829218
0.12001993 -0.0681705 -0.0025379509 -0.014102921 -0.037465215 0.032468587 -0.035950243 0.12035312
0.13303868 -0.09240738 0.104291454 0.06215185 -0.09039799 0.017986625 0.13888536 -0.020079896
0.1209759 -0.107697375 -0.12481056 -0.042764053 -0.120341346 0.033886105 0.012841642 -0.12737751
-0.01466617 -0.0060984343 -0.05395083 0.09392901 0.050384656 -0.06453403 -0.006804824 0.08049159
-0.005114183 0.07820557 0.030740947 0.10409044 0.03740035 -0.087901846 -0.16276923 -0.13926911
-0.1335031 -0.1253247 0.031381696 0.04864143 0.13939534 0.08656256 -0.09271169 0.1552517
0.11676939 0.099875376 -0.062489487 -0.0777257 0.11343859 0.0178985 0.06403603 -0.17645288
0.16222097 0.16546871 -0.026917458 0.014486715 -0.064923175 0.032059133 0.024773031 0.05869694
0.08929433 -0.10049195 -0.06529154 -0.14777127 -0.0864662 -0.11480772 -0.10256596 -0.04176542
-0.056740828 0.17251094 0.055122465 -0.1757865 -0.094555065 -0.17394266 -0.01044327 0.010905504
-0.16652945 -0.11025624 -0.018863827 -0.03431596 -0.0064140707 -0.121943854 0.13917084 0.09928633
0.1684473 0.13028072 -0.14229906 -0.0017130524 0.009058461 -0.13430266 0.014517024 0.13154562
-0.15016568 -0.1473109 0.0067351013 -0.102109045 -0.17185736 -0.13099553 -0.10559669 0.097828135
-0.0049954504 0.082955375 0.10255699 0.12119411 -0.055997692 -0.03652568 0.100965545 -0.112617135
-0.042143643 0.13324495 -0.01959841 -0.01597467 -0.019881979 -0.101842165 -0.14676236 -0.06399775
0.13037701 0.007267341 0.054379717 -0.09083779 -0.07621752 -0.15164174 0.043188766 -0.026849017
0.038961723 -0.16723047 0.008454114 0.11990239 0.14247094 -0.084575914 0.082004026 0.026264265
0.04942362 0.09822501 -0.1571307 0.036350638 0.089445725 -0.046260923 -0.11197903 -0.04460612
0.044544414 -0.077563226 0.068029895 0.15412419 0.08796714 -0.0028546005 -0.015473619 0.1213329
00000000: 725f d5bd 25d0 0d3e a21a efbd 3c15 a4bd
00000010: 22ae 1abe a646 9c3d 8b45 d2bd c99c 2bbe
00000020: e16a d3bd 0624 a33d a87c 2abd f796 29be
00000030: 12e4 10be 8560 8bbd 1219 d83d 5294 d6bd
00000040: d030 4d3c 29d1 183e 784e 82bd 588d 503d
00000050: be86 903d 57e5 12be c25f bb3d a6e7 de3d
00000060: 4069 ddbc 00f5 0e3c a247 b33d 39b6 2f3e
00000070: 18dc 403d a8e9 dabc a204 f23d 277c e1bd
00000080: c03a 92bc ebae 293e 226e f03d c866 ecbc
00000090: f094 5fbc 133b 1e3e 128e 8d3d 40a5 40bd
000000a0: 483c a8bd e182 c6bd 9e13 dcbd f000 853d
000000b0: 7c2e 5cbd d6e6 ffbd 30e9 083c 422e 07be
000000c0: e057 283c cafa 0dbe f6e3 d5bd 7794 0ebe
000000d0: bf2b 25be c22e c13d 80be b03a 2e5b 813d
000000e0: 12e0 77bd 20d7 63bc 188f 083d 0c3c 27bd
000000f0: c290 15be d05a 1abd c40a 19be 5693 71bd
00000100: d20e e0bd e076 71bd e3e1 ccbd 17e3 e8bd
00000110: c01e 413b 32d2 a7bd 9e46 b93d 0373 d7bd
00000120: 2072 32bc 8a28 06be 4c22 efbd 32f4 f13d
00000130: 5836 813d 4cc1 08be 4847 5fbd 6874 4a3d
00000140: 328a 67bd 3035 27bd 2275 d33d 8a5e 03be
00000150: 502b 5c3c 396f 333e dcfd 45bd 5431 1bbd
00000160: d2da 7abd 2557 143e 94ad 37bd 620d fb3d
00000170: 58e9 8b3d d009 6f3d ccf0 1fbe 0041 983a
00000180: a263 1abe ce3d b53d 38fc 163d 5066 5fbd
00000190: dee2 883d e827 1ebe f3f3 2fbe 4486 333d
000001a0: 02cd f53d fa9c 8bbd c053 26bb f00f 67bc
000001b0: 2075 19bd c8fd 043d 9040 13bd b27b f63d
000001c0: 4b3b 083e 1540 bdbd c296 d53d f092 7e3d
000001d0: 9522 b9bd b058 933c f737 0e3e 987e a4bc
000001e0: 36c2 f73d 7190 dcbd ae9c ffbd 5c29 2fbd
000001f0: 8675 f6bd 28cc 0a3d c065 523c 406f 02be
00000200: 604a 70bc 60d5 c7bb 8cfb 5cbd da5d c03d
00000210: 2460 4e3d 6b2a 84bd 00fb debb c6d8 a43d
00000220: e094 a7bb 3e2a a03d 70d4 fb3c 5e2d d53d
00000230: 1c31 193d e205 b4bd faac 26be 909c 0ebe
00000240: 09b5 08be 1e55 00be 188a 003d 3c3c 473d
00000250: a7bd 0e3e b647 b13d a0df bdbd 4dfa 1e3e
00000260: ca24 ef3d 768b cc3d faf4 7fbd a72e 9fbd
00000270: 7e52 e83d e09f 923c 5225 833d 10b0 34be
00000280: 411d 263e a170 293e 0082 dcbc b059 6d3c
00000290: 71f6 84bd 7050 033d d0f0 ca3c 346c 703d
000002a0: f2df b63d b9ce cdbd 92b7 85bd 5a51 17be
000002b0: 3115 b1bd 4f20 ebbd 1a0e d2bd 3812 2bbd
000002c0: 1269 68bd b5a6 303e 18c8 613d 6001 34be
000002d0: 16a6 c1bd 061e 32be 401a 2bbc 00ad 323c
000002e0: b286 2abe 06ce e1bd 5088 9abc e48e 0cbd
000002f0: 202d d2bb b3bd f9bd cd82 0e3e a256 cb3d
00000300: 737d 2c3e 4f68 053e d8b6 11be 8088 e0ba
00000310: f069 143c a386 09be d0d8 6d3c e5b3 063e
00000320: 08c5 19be abd8 16be 20b2 dc3b 8c1e d1bd
00000330: 60fb 2fbe b123 06be 1443 d8bd 1e5a c83d
00000340: e0b0 a3bb 82e4 a93d 6609 d23d 9e34 f83d
00000350: d65d 65bd f49b 15bd 06c7 ce3d d0a3 e6bd
00000360: d09e 2cbd 5d71 083e d88c a0bc 50dd 82bc
00000370: 88df a2bc a092 d0bd df48 16be 4111 83bd
00000380: 8d81 053e e022 ee3b 44bd 5e3d 2a09 babd
00000390: ee17 9cbd f947 1bbe b4e6 303d 78f2 dbbc
000003a0: 5496 1f3d 773e 2bbe 2083 0a3c 628f f53d
000003b0: e7e3 113e 2336 adbd baf1 a73d 2828 d73c
000003c0: 6c70 4a3d 322a c93d dfe6 20be 68e4 143d
000003d0: 522f b73d 187c 3dbd 4355 e5bd e8b4 36bd
000003e0: 3474 363d 78d9 9ebd 4253 8b3d bbd2 1d3e
000003f0: 1e28 b43d 4014 3bbb 1085 7dbc 627d f83d

sequential_5/dense_30/MatMul f4 [32, 64]
-0.019637465 -0.09384364 0.033400636 0.103890836 0.21908748 -0.050548468 -0.18461353 -0.076806255
0.010720927 0.1835699 -0.13699532 0.13961169 -0.1166952 0.093594775 -0.32097045 -0.14109819
-0.33542243 0.23140448 -0.22087096 0.25767645 0.036549956 0.1096282 -0.17167212 -0.24574769
-0.02144965 -0.17438813 0.033713043 -0.24072827 0.24396673 0.027545722 -0.03006542 -0.1722391
-0.029456686 -0.23817354 0.09350121 -0.114737906 0.024483431 0.04134365 0.14192665 -0.112977505
-0.08760409 0.062143326 0.07765427 0.24468508 0.3403456 0.028401664 -0.16455227 0.076609135
0.21473226 0.1740426 0.18305886 -0.097846106 0.10070552 -0.002445372 -0.20829728 -0.10774153
-0.031048328 0.07732657 -0.005946616 -0.2616795 0.048026264 -0.24785471 0.045936465 0.040023297
-0.23443955 0.071023524 -0.0061358246 0.22092187 0.1908285 -0.08764832 0.20943218 0.046547573
-0.0032491467 -0.27825025 -0.032141495 0.1589678 0.008862839 0.21138015 -0.051223926 -0.0987937
0.041678853 -0.22330059 -0.17826037 -0.25142583 0.1626718 -0.025300086 0.20021756 0.07905483
0.24130483 0.09574326 0.05232811 0.119237326 -0.024171725 0.20702982 -0.026915854 0.17123938
-0.10642023 0.100134194 -0.15138918 -0.012443828 0.09943434 -0.081035145 0.15996106 0.16478562
0.01219881 0.22468656 0.2124855 0.04455394 0.11081488 -0.24584548 0.2112267 0.14351285
-0.034110118 -0.23055494 -0.15711886 0.10151732 0.018925449 -0.21437912 -0.12573665 0.017755214
-0.2144294 -0.19844699 0.11648966 -0.094833665 -0.047846437 0.257741 -0.020673692 0.19508809
0.24331725 -0.20827079 0.15050986 -0.038306713 0.16566682 0.15978092 0.18496394 -0.07340208
0.14378527 -0.14419545 0.09916735 -0.054687604 -0.15953714 0.037348308 0.29482785 -0.14347966
-0.08561778 0.10926867 -0.09818764 0.02067547 0.2749047 0.055128515 -0.2068528 0.00911665
0.21970768 -0.09616692 0.06867635 -0.18310899 -0.14935324 -0.07201263 -0.18478663 0.05054432
0.06790926 0.20816052 -0.28110734 0.12468273 -0.009448452 0.16617171 0.15625452 0.15494365
0.1430574 0.088695765 0.23914836 -0.16171454 -0.20539512 -0.03340583 0.22640252 -0.08316237
0.091432355 -0.2715738 -0.13846338 -0.21237849 0.22374336 0.15734713 -0.006664185 0.19128807
0.19729309 -0.26154587 0.037681393 -0.16013043 -0.22844404 0.31028423 -0.22845721 -0.0014924835
0.12595618 -0.12502879 -0.02440246 -0.23920882 0.21639013 -0.13765867 -0.108935475 0.14280346
-0.2342342 -0.20729654 -0.14214218 0.0449834 -0.18190679 -0.046084005 0.21876377 0.09422699
0.02331064 0.029082125 -0.14714746 -0.045171604 0.003622628 0.16539943 -0.19821304 0.10617298
-0.17206801 -0.020278879 0.061978877 0.12596391 -0.0029026507 0.1055674 0.025476059 -0.08605148
-0.26276422 0.100060105 -0.06853818 -0.31472465 -0.009435971 0.09923814 0.17063592 0.08772254
-0.10485996 -0.13474023 0.26769868 -0.28027984 -0.32611772 0.24747658 -0.21040928 0.021715939
0.12998407 -0.3139131 -0.19683856 0.1443717 0.12695016 0.021404736 0.21350402 -0.10382641
-0.047832508 0.088445306 -0.042873707 0.08567685 -0.17043138 0.2583179 -0.035732806 -0.046586007
00000000: c0de a0bc 1831 c0bd 1bcf 083d b8c4 d43d
00000010: 7858 603e e90b 4fbd 540b 3dbe 994c 9dbd
00000020: d4a6 2f3c bff9 3b3e 8048 0cbe 5ef6 0e3e
00000030: e5fd eebd 9eae bf3d 3d56 a4be 0b7c 10be
00000040: 7dbc abbe 4cf5 6c3e ff2b 62be 2bee 833e
00000050: 68b5 153d c084 e03d d1ca 2fbe 48a5 7bbe
00000060: 2db7 afbc cd92 32be b016 0a3d 7981 76be
00000070: 6ad2 793e 91a7 e13c c14b f6bc 725f 30be
00000080: 264f f1bc c4e3 73be 907d bf3d b5fb eabd
00000090: 7a91 c83c f657 293d 3855 113e c060 e7bd
000000a0: c669 b3bd 008a 7e3d 3409 9f3d ba8e 7a3e
000000b0: c741 ae3e 9baa e83c 6480 28be 40e5 9c3d
000000c0: c6e2 5b3e 3938 323e c873 3b3e 8a63 c8bd
000000d0: b23e ce3d 8942 20bb e24b 55be 97a7 dcbd
000000e0: 1059 febc 655d 9e3d d5db c2bb dbfa 85be
000000f0: 30b7 443d a0cd 7dbe e027 3c3d 78ef 233d
00000100: ec10 70be c874 913d 070f c9bb 5839 623e
00000110: 8c68 433e f680 b3bd 6475 563e aba8 3e3d
00000120: a3ef 54bb d176 8ebe cda6 03bd 74c8 223e
00000130: 7135 113c 0a74 583e 2ed0 51bd 5a54 cabd
00000140: 72b7 2a3d e9a8 64be e389 36be e3ba 80be
00000150: 7093 263e 2042 cfbc d505 4d3e 80e7 a13d
00000160: 9d18 773e 0b15 c43d 0056 563d b332 f43d
00000170: c803 c6bc a0ff 533e a37e dcbc 6059 2f3e
00000180: d9f2 d9bd 2813 cd3d c405 1bbe 33e1 4bbc
00000190: 3ba4 cb3d c1f5 a5bd d5cc 233e 90bd 283e
000001a0: 85dd 473c 3c14 663e cd95 593e 317e 363d
000001b0: e9f2 e23d ebbe 7bbe d04b 583e 08f5 123e
000001c0: 0db7 0bbd 9816 6cbe c4e3 20be 50e8 cf3d
000001d0: 8b09 9b3c 3386 5bbe 1cc1 00be 6273 913c
000001e0: 6193 5bbe b035 4bbe 2292 ee3d 2738 c2bd
000001f0: a0fa 43bd a1f6 833e e05b a9bc 2cc5 473e
00000200: 2828 793e f044 55be 421f 1a3e 80e7 1cbd
00000210: 90a4 293e 9c9d 233e 3067 3d3e d453 96bd
00000220: 723c 133e f9a7 13be 4018 cb3d 1c00 60bd
00000230: b45d 23be 8afa 183d adf3 963e 55ec 12be
00000240: 6058 afbd 41c8 df3d 9a16 c9bd 9a5f a93c
00000250: 4fc0 8c3e 70ce 613d 38d1 53be 005e 153c
00000260: 0dfb 603e 2af3 c4bd 30a6 8c3d ec80 3bbe
00000270: 0ef0 18be 5c7b 93bd b538 3dbe 9007 4f3d
00000280: 0314 8b3d 0828 553e 4ded 8fbe a959 ff3d
00000290: aecd 1abc eb28 2a3e 2f01 203e 8ca9 1e3e
000002a0: a47d 123e 20a6 b53d 4fe3 743e 7f98 25be
000002b0: 1953 52be 8dd4 08bd 10d6 673e 0851 aabd
000002c0: e340 bb3d b90b 8bbe 58c9 0dbe bf79 59be
000002d0: fb1c 653e 9b1f 213e 3c5f dabb 05e1 433e
000002e0: 3307 4a3e 57e9 85be ce57 1a3d 3bf9 23be
000002f0: 3ced 69be 93dd 9e3e b0f0 69be 709f c3ba
00000300: a8fa 003e 8c07 00be abe7 c7bc 28f3 74be
00000310: 6095 5d3e 65f6 0cbe 9019 dfbd 123b 123e
00000320: 17db 6fbe 8b45 54be b88d 11be 8340 383d
00000330: c645 3abe 95c2 3cbd 9c03 603e 15fa c03d
00000340: f5f5 be3c a33d ee3c d3ad 16be dc05 39bd
00000350: 9d69 6d3b 785e 293e 5cf8 4abe 3871 d93d
00000360: 9932 30be e41f a6bc 90dd 7d3d affc 003e
00000370: 663a 3ebb b933 d83d 2bb3 d03c c23b b0bd
00000380: 0889 86be 50ec cc3d bf5d 8cbd 9723 a1be
00000390: 5599 1abc 5e3d cb3d 2fbb 2e3e e0a7 b33d
000003a0: d2c0 d6bd 58f9 09be cd0f 893e d780 8fbe
000003b0: e7f8 a6be 806a 7d3e 8875 57be a0e5 b13c
000003c0: 8b1a 053e 38b9 a0be 0c90 49be 2dd6 133e
000003d0: 39ff 013e fc58 af3c cca0 5a3e f1a2 d4bd
000003e0: 05ec 43bd d022 b53d 579c 2fbd 5877 af3d
000003f0: 9085 2ebe 3e42 843e 905c 12bd f8d0 3ebd

sequential_5/dense_31/MatMul f4 [64, 32]
-0.045391373 0.1332274 -0.10619864 0.2592748 -0.0059742513 0.08800986 0.20620577 -0.123378314
0.2018795 -0.030374479 0.12335357 0.21106102 0.007748186 -0.21857333 0.0650864 0.110089876
-0.14140862 0.14568768 0.20132287 -0.06684932 -0.20655914 0.06436215 -0.018646674 -0.1588466
-0.21724114 0.12056283 0.07726605 -0.1917543 0.07940994 0.13750578 0.06987058 -0.1746954
-0.1448123 -0.062001098 -0.09247722 0.18253298 0.17652188 0.23039503 -0.13968116 -0.0480523
0.07892332 -0.070270315 -0.12278729 0.10135183 0.14970076 -0.09672279 0.16191876 0.15573677
-0.08646047 0.26048392 0.16428648 -0.17060502 0.09275498 -0.18098707 -0.017842744 -0.12376155
0.095907725 -0.010301939 0.10938834 -0.18304262 0.045228902 -0.063106604 0.23095094 -0.102583624
0.053341676 0.11864581 0.033576887 0.19513981 -0.1966737 -0.1617204 -0.06824126 -0.25344825
-0.100699365 -0.014531692 0.09448621 -0.0010158429 -0.1796334 0.1719165 -0.00041284767 -0.052297093
0.1947129 -0.15455699 0.13617426 -0.14579234 0.080011286 -0.12712517 -0.10068129 0.044525985
-0.23992828 0.06888021 -0.21151277 -0.038456764 0.2153935 0.11049253 -0.19943008 -0.2073852
-0.13931106 0.16529404 0.10721835 -0.13976285 -0.21823725 -0.016592914 -0.21105279 -0.13457313
-0.021694774 -0.0025180066 0.17156377 0.038951874 0.16899602 0.13766843 -0.09459319 -0.17466642
0.28708583 -0.22124538 0.1872342 0.08916981 -0.22289471 0.18128021 0.1346637 -0.11228525
-0.021782095 0.199353 0.13009025 0.24195457 -0.10091954 -0.13478443 -0.009169242 -0.083625905
0.13131006 -0.21353191 -0.077962674 0.15181072 -0.14289635 -0.08845398 0.1464723 0.040020272
0.19808723 -0.0869252 -0.21369211 -0.009074604 -0.022629358 -0.09627515 -0.20475022 -0.2517462
0.08709318 0.13417695 -0.22589892 -0.18240097 -0.033823363 -0.008918917 0.13290502 -0.09791288
0.055093594 -0.038306385 -0.07622592 0.21048209 0.10058364 -0.16368276 0.12969135 0.17404671
-0.04089524 0.07859003 0.10957869 0.1730503 -0.028370302 -0.12439014 -0.049269047 0.053168822
8.0304184e-05 -0.011816293 0.15336388 -0.0976783 -0.15119667 -0.064760365 0.046657827 -0.08609765
-0.109697945 0.10717534 -0.055719852 0.1252352 0.10565239 -0.15296376 0.05464502 0.03615613
0.039861497 0.0134437 -0.09541082 -0.061486658 -0.1809224 0.032385547 0.19760068 -0.20410988
-0.051398102 -0.03073959 0.12739317 -0.002799245 -0.018339964 -0.017182058 0.09070351 -0.09193939
-0.07153819 -0.043860737 -0.13559067 -0.057703774 0.0922744 0.08515522 -0.074087396 -0.15913221
0.20679295 -0.08279917 -0.23224163 0.08214837 0.07162016 -0.049023323 0.13197777 -0.025301507
0.12728596 -0.019550424 -0.18203112 -0.21231852 0.09550479 -0.20031095 -0.121229894 -0.19175567
0.066621944 0.24306792 0.1233892 0.18550013 -0.06500968 0.24352463 0.23745768 0.2360605
-0.19277474 -0.005410644 0.013507966 0.027908653 0.081576355 0.1790621 0.13360423 0.13086998
-0.26234052 0.042259604 -0.08748373 0.14725631 0.17095083 0.023124492 -0.1623519 -0.15016575
0.0572878 -0.2405901 0.18601732 0.12841552 0.044867605 -0.22956382 0.22321475 0.21851183
00000000: 4eec 39bd c36c 083e ac7e d9bd abbf 843e
00000010: a7c3 c3bb 833e b43d 9b27 533e c5ad fcbd
00000020: 80b9 4e3e e6d3 f8bc cca0 fc3d 6120 583e
00000030: 7fe4 fd3b b0d1 5fbe 054c 853d cd76 e13d
00000040: 6ccd 10be 272f 153e 9527 4e3e 4ce8 88bd
00000050: 3d84 53be 4ed0 833d e9c0 98bc afa8 22be
00000060: 7674 5ebe a5e9 f63d aa3d 9e3d 3d5b 44be
00000070: aea1 a23d 51ce 0c3e 4f18 8f3d 5ae3 32be
00000080: ad49 14be ddf4 7dbd b264 bdbd ede9 3a3e
00000090: 27c2 343e adec 6b3e 9408 0fbe 7dd2 44bd
000000a0: 8da2 a13d e2e9 8fbd e777 fbbd 8c91 cf3d
000000b0: 284b 193e 9916 c6bd 08ce 253e 7679 1f3e
000000c0: 3012 b1bd 265e 853e b73a 283e 15b3 2ebe
000000d0: 53f6 bd3d ad54 39be f22a 92bc b276 fdbd
000000e0: 456b c43d 77c9 28bc fe06 e03d 866f 3bbe
000000f0: f141 393d 093e 81bd 677e 6c3e 5d17 d2bd
00000100: cd7c 5a3d 93fc f23d eb87 093d bbd2 473e
00000110: d564 49be 089a 25be 13c2 8bbd f8c3 81be
00000120: 783b cebd 5516 6ebc fc81 c13d 0826 85ba
00000130: d1f1 37be e10a 303e 7a73 d8b9 7a35 56bd
00000140: d262 473e 3044 1ebe 4471 0b3e 964a 15be
00000150: f5dc a33d 1a2d 02be fe31 cebd e160 363d
00000160: c2af 75be 1111 8d3d ce96 58be d784 1dbd
00000170: 1d90 5c3e e849 e23d 6637 4cbe c95c 54be
00000180: 8fa7 0ebe d742 293e 4b95 db3d fe1d 0fbe
00000190: 9679 5fbe dded 87bc 391e 58be 8acd 09be
000001a0: 3db9 b1bc 2405 25bb 6aae 2f3e 008c 1f3d
000001b0: 4b0d 2d3e f4f8 0c3e 13ba c1bd c1db 32be
000001c0: eafc 923e 268e 62be 52ba 3f3e a99e b63d
000001d0: 833e 64be 85a1 393e 48e5 093e cff5 e5bd
000001e0: 5d70 b2bc 3123 4c3e 6136 053e f0c2 773e
000001f0: e7ae cebd ee04 0abe 973a 16bc 0f44 abbd
00000200: 2576 063e 1ca8 5abe e5aa 9fbd 4574 1b3e
00000210: 6c53 12be 5c27 b5bd d6fc 153e 4cec 233d
00000220: 61d7 4a3e d705 b2bd 1bd2 5abe a6ad 14bc
00000230: 3461 b9bc e82b c5bd 0baa 51be e1e4 80be
00000240: e95d b23d af65 093e 0c52 67be 52c7 3abe
00000250: 5e8a 0abd a620 12bc 4118 083e 8c86 c8bd
00000260: d2a9 613d 28e7 1cbd 561c 9cbd 9e88 573e
00000270: ccfe cd3d 749c 27be cfcd 043e 4d39 323e
00000280: c481 27bd cff3 a03d cb6a e03d 1934 313e
00000290: d668 e8bc 42c0 febd 57ce 49bd 8dc7 593d
000002a0: fb68 a838 2099 41bc 6c0b 1d3e 900b c8bd
000002b0: 4dd3 1abe 15a1 84bd 471c 3f3d f753 b0bd
000002c0: 51a9 e0bd bf7e db3d 803a 64bd a83d 003e
000002d0: 4860 d83d 88a2 1cbe 75d3 5f3d 7318 143d
000002e0: cf45 233d f742 5c3c bf66 c3bd 6fd9 7bbd
000002f0: b943 39be b5a6 043d d557 4a3e 2e02 51be
00000300: d186 52bd 98d1 fbbc 5b73 023e 8a73 37bb
00000310: b13d 96bc 63c1 8cbc c3c2 b93d b84a bcbd
00000320: 9d82 92bd 51a7 33bd 48d8 0abe cb5a 6cbd
00000330: 5cfa bc3d dc65 ae3d 22bb 97bd 8ef3 22be
00000340: 88c1 533e 9c92 a9bd c0d0 6dbe 683d a83d
00000350: 97ad 923d aecc 48bd 2e25 073e 1b45 cfbc
00000360: 4057 023e 3628 a0bc 5e66 3abe 076a 59be
00000370: 0498 c33d 501e 4dbe 6147 f8bd 995b 44be
00000380: 1671 883d cce6 783e 7ab3 fc3d bff3 3d3e
00000390: cc23 85bd 855e 793e 1b28 733e d8b9 713e
000003a0: be66 45be c64b b1bb 8450 5d3c b0a0 e43c
000003b0: 8111 a73d 0e5c 373e 8ccf 083e c802 063e
000003c0: 7f51 86be 6818 2d3d ab2a b3bd 5cca 163e
000003d0: bc0d 2f3e 936f bd3c 943f 26be 0dc5 19be
000003e0: 9da6 6a3d 405d 76be 537b 3e3e 5c7f 033e
000003f0: 18c7 373d c712 6bbe 6892 643e 91c1 5f3e

sequential_5/dense_32/MatMul f4 [128, 64]
-0.100691795 0.098114096 -0.046146758 0.05809158 0.13095582 -0.18957993 -0.08494094 -0.03508114
0.1357137 -0.10648488 0.12210893 -0.107224 -0.009338063 -0.10398523 0.23283404 -0.17665444
0.040701155 0.22174734 -0.05987527 0.19792841 -0.15566017 -0.026463708 0.01801555 0.03090737
-0.08618361 -0.101221085 0.22698109 0.21849382 0.11900555 0.061740253 0.12832598 0.03695103
0.07031114 -0.11789663 -0.08890852 -0.117025144 0.14741912 0.115793824 0.045111217 0.103882484
-0.072530285 -0.09293124 -0.092084065 -0.13429835 0.11519995 0.15304092 0.13165814 0.1001365
0.075169004 0.029472716 0.029785216 0.017802907 0.13652168 -0.1348254 0.0494374 -0.063880235
0.06547154 0.028758874 0.027969511 -0.120214224 -0.009430984 0.0116942115 -0.15185648 -0.15610819
-0.06537107 -0.1261125 -0.05473558 0.119053334 -0.15752748 -0.16333598 0.11525085 -0.1512777
0.15027398 0.05281806 -0.0483639 -0.052889 -0.026146265 -0.07734987 0.15945962 0.06434848
0.1541418 0.0014775592 -0.038785756 -0.13686955 0.054119606 -0.0016586584 -0.013247464 -0.0756053
0.09358192 0.02827931 0.010775318 -0.08985787 -0.09519957 -0.07446327 -0.050916757 0.05394437
0.11895596 0.08464452 0.030793667 0.076107465 -0.00665863 0.16186754 0.04223968 -0.17424262
0.19353043 0.017572977 -0.021639762 0.077384114 -0.034586564 0.15806402 -0.009015891 0.0881938
0.048833195 0.10764902 0.12586205 0.049271602 -0.14775254 0.117699414 0.16846602 -0.057901267
0.1603939 -0.068271294 0.0043999655 0.102735125 -0.0021071234 0.0026986604 -0.018062 -0.10959006
0.067194425 -0.037224278 0.019789755 -0.211087 0.058980674 -0.13993336 -0.015135922 0.12053428
0.074797094 -0.14367671 -0.028198762 0.09277461 0.15031618 -0.07559372 -0.087590165 0.111298464
-0.11228023 -0.02156497 0.012925394 -0.036174487 0.0498129 0.058447648 0.052116048 -0.0030685256
-0.12862873 0.08924994 0.16289406 0.057187065 0.040142637 -0.11801497 -0.08945641 0.21195039
-0.051627573 0.02481125 -0.15883923 0.13126546 -0.13686869 0.06665525 -0.096300416 0.063497745
0.06887445 0.16969734 -0.070037164 0.14178027 -0.06628735 -0.18897921 0.1584268 0.061388835
0.16674344 0.07104864 -0.08575783 -0.15982322 -0.078169204 0.030228447 -0.06367135 -0.17987001
-0.026096594 0.0783369 0.1819132 -0.0562714 -0.17941307 0.011241061 0.005415082 -0.013405087
0.019824749 -0.041253805 0.020958483 0.13094348 -0.110158704 0.05208321 0.15151109 0.07985704
-0.14987506 -0.15207112 -0.07606091 -0.05246207 -0.12309267 -0.1800013 0.124466404 -0.22567208
0.11101844 -0.09267804 -0.05294316 0.09494171 -0.04109198 0.1330557 -0.09415893 0.017252835
-0.07814668 0.009629134 0.07725933 -0.11780634 -0.05852364 -0.0435482 0.021132253 -0.04504532
-0.06960767 -0.058478825 0.12648463 0.047805134 0.029243074 0.106874205 0.0697961 -0.16699961
0.21120678 0.12002497 -0.004426075 -0.09161334 -0.07040658 0.1536876 -0.06774315 -0.114169694
0.16884723 0.128669 0.17157482 -0.089410484 -0.17731524 -0.14243601 0.038928386 -0.006387386
0.13065863 0.13071571 -0.11028153 -0.03655403 -0.04105878 -0.05128278 -0.043931723 0.13848306
00000000: 8037 cebd 0bf0 c83d 6204 3dbd 70f1 6d3d
00000010: 4819 063e 3e21 42be 84f5 adbd 3eb1 0fbd
00000020: 88f8 0a3e bf14 dabd 3f14 fa3d 4298 dbbd
00000030: adfe 18bc 35f6 d4bd 0c6c 6e3e e7e4 34be
00000040: 41b6 263d bc11 633e c53f 75bd bfad 4a3e
00000050: 6165 1fbe 6bca d8bc 5995 933c 7431 fd3c
00000060: 0881 b0bd 004d cfbd bb6d 683e d8bc 5f3e
00000070: 2fb9 f33d 59e3 7c3d e367 033e f759 173d
00000080: 49ff 8f3d ca73 f1bd ac15 b6bd e1aa efbd
00000090: 0af5 163e 5025 ed3d 8ac6 383d 57c0 d43d
000000a0: c28a 94bd bc52 bebd 9296 bcbd 8285 09be
000000b0: f4ed eb3d c2b6 1c3e 64d1 063e 5e14 cd3d
000000c0: 35f2 993d c470 f13c 2000 f43c 67d7 913c
000000d0: 57cc 0b3e ab0f 0abe df7e 4a3d a4d3 82bd
000000e0: f115 863d bb97 eb3c 5120 e53c e032 f6bd
000000f0: 6a84 1abc 1499 3f3c 4480 1bbe d3da 1fbe
00000100: 44e1 85bd a323 01be 6a32 60bd 3cd2 f33d
00000110: e24e 21be 8c41 27be a308 ec3d 8be8 1abe
00000120: 6ce1 193e c057 583d 3a19 46bd 23a2 58bd
00000130: b130 d6bc 9c69 9ebd 6249 233e 23c9 833d
00000140: 59d7 1d3e a9aa c13a d0dd 1ebd 8827 0cbe
00000150: 85ac 5d3d 5767 d9ba e40b 59bc f4d6 9abd
00000160: e1a7 bf3d 03aa e73c f68a 303c 6707 b8bd
00000170: fef7 c2bd 3380 98bd 178e 50bd c6f4 5c3d
00000180: 2f9f f33d 1b5a ad3d 0043 fc3c 3bde 9b3d
00000190: a330 dabb 9bc0 253e 8403 2d3d a86c 32be
000001a0: d72c 463e 34f5 8f3c df45 b1bc 907b 9e3d
000001b0: a4aa 0dbd 89db 213e 63b7 13bc f39e b43d
000001c0: 5105 483d 1777 dc3d fbe1 003e 05d1 493d
000001d0: 714c 17be 640c f13d 5b82 2c3e e129 6dbd
000001e0: 4c3e 243e d2d1 8bbd 962d 903b cb66 d23d
000001f0: aa17 0abb 02dc 303b c2f6 93bc c170 e0bd
00000200: 3b9d 893d 7c78 18bd 201e a23c 3127 58be
00000210: b895 713d b14a 0fbe a8fc 77bc adda f63d
00000220: 382f 993d fd1f 13be 1701 e7bc 9d00 be3d
00000230: 7cec 193e e1d0 9abd 7962 b3bd 73f0 e33d
00000240: 2df3 e5bd 05a9 b0bc 08c5 533c b32b 14bd
00000250: 9d08 4c3d cd66 6f3d a377 553d 5119 49bb
00000260: 40b7 03be acc8 b63d b3cd 263e fc3c 6a3d
00000270: 9b6c 243d d5b1 f1bd ec34 b7bd 8609 593e
00000280: 6f77 53bd f640 cb3c c0a6 22be 746a 063e
00000290: 4e27 0cbe 8c82 883d 2739 c5bd 1b0b 823d
000002a0: 0c0e 8d3d 24c5 2d3e a56f 8fbd d92e 113e
000002b0: aac1 87bd c483 41be a33a 223e dc72 7b3d
000002c0: cbbe 2a3e f381 913d cda1 afbd b3a8 23be
000002d0: 2d17 a0bd a6a1 f73c 2066 82bd d82f 38be
000002e0: 86c8 d5bc 196f a03d 7447 3a3e d77c 66bd
000002f0: 0fb8 37be 6d2c 383c 0071 b13b 03a1 5bbc
00000300: 8367 a23c c0f9 28bd 20b1 ab3c 0c16 063e
00000310: e39a e1bd 3455 553d b925 1b3e 168c a33d
00000320: d978 19be 88b8 1bbe d3c5 9bbd 78e2 56bd
00000330: 0318 fcbd 4352 38be 3ee8 fe3d 9516 67be
00000340: a35d e33d fccd bdbd edda 58bd cd70 c23d
00000350: 1050 28bd c13f 083e 66d6 c0bd d155 8d3c
00000360: 5e0b a0bd 84c3 1d3c 243a 9e3d 7344 f1bd
00000370: 7cb6 6fbd 995f 32bd 8c1d ad3c 7181 38bd
00000380: 778e 8ebd 7e87 6fbd 3085 013e 51cf 433d
00000390: 2c8f ef3c dde0 da3d 42f1 8e3d f201 2bbe
000003a0: 9746 583e a7cf f53d 9c08 91bb c69f bbbd
000003b0: 5331 90bd 4860 1d3e ecbc 8abd cdd1 e9bd
000003c0: 4ae6 2c3e cec1 033e 4fb1 2f3e d81c b7bd
000003d0: 2092 35be bfda 11be 5f73 1f3d 474d d1bb
000003e0: 60cb 053e 57da 053e 48db e1bd aeb9 15bd
000003f0: 402d 28bd e40d 52bd c0f1 33bd 81ce 0d3e

sequential_5/dense_33/MatMul f4 [1, 128]
-0.21965788 -0.20198412 0.05421213 -0.22250861 -0.18921801 -0.075924516 -0.16913603 0.0065343035
-0.19879602 0.051482234 0.14147998 -0.07331973 0.13808161 -0.011232569 -0.0013099831 -0.15998846
-0.17959967 -0.18507294 -0.16616727 -0.22382827 0.07551892 0.082427315 0.07122657 0.09329903
-0.08870936 -0.17582919 0.05569018 -0.0797728 -0.26401272 0.079734996 0.24490008 -0.13979223
-0.09645366 -0.04647061 0.097598925 -0.12750216 0.17884462 -0.10904438 0.086430654 -0.065190434
0.071716726 0.20087261 0.17316084 -0.24844784 -0.036422815 0.034909137 0.058648665 0.18137754
0.14925607 0.19072868 0.1654044 0.15765357 0.22614007 0.09495961 -0.20760775 -0.02785124
0.024950556 0.26597613 0.18364173 0.06412122 0.2036456 -0.2386978 0.07497168 0.100557856
0.056865383 0.038192082 0.00796267 0.07117115 -0.18863024 0.06626485 -0.07465918 0.18287443
0.17531778 -0.1415975 -0.12917112 0.09745874 0.06663972 -0.2279878 0.2169434 0.22487867
-0.14618438 0.054666474 0.16381124 0.21758062 -0.059023224 -0.10855754 -0.12545398 0.13027808
-0.19842133 0.120796025 -0.21356922 0.050728623 0.08023492 -0.22088012 0.1174757 -0.00990906
0.04158782 -0.15411162 0.18768051 -0.13413073 -0.06526715 -0.14601399 -0.04919046 -0.030104822
0.16890562 -0.030738376 -0.22465539 -0.07565244 0.25479877 -0.058036253 0.040968243 0.07809796
0.022698335 -0.30785152 0.19050273 0.28526282 -0.1012233 0.15653068 0.048037913 -0.062419195
0.1751918 0.07411221 0.1322421 0.040019922 0.21592477 0.1024852 0.14282948 0.04166888
00000000: ffed 60be edd4 4ebe 8a0d 5e3d 4cd9 63be
00000010: 5ec2 41be 507e 9bbd ff31 2dbe b61d d63b
00000020: 2f91 4bbe 09df 523d 21e0 103e a828 96bd
00000030: 4465 0d3e cf08 38bc bdb3 abba 04d4 23be
00000040: fae8 37be c383 3dbe c127 2abe 3d33 65be
00000050: aaa9 9a3d a7cf a83d 3cdf 913d 9013 bf3d
00000060: 41ad b5bd 910c 34be 631b 643d ec5f a3bd
00000070: ad2c 87be 1a4c a33d 16c7 7a3e b225 0fbe
00000080: 7f89 c5bd f757 3ebd f2e1 c73d ed8f 02be
00000090: 0b23 373e a952 dfbd 8e02 b13d 9082 85bd
000000a0: 38e0 923d 8db1 4d3e 1351 313e 1c69 7ebe
000000b0: 1730 15bd e2fc 0e3d 9539 703d 09bb 393e
000000c0: 95d6 183e 614e 433e c55f 293e f06f 213e
000000d0: 4391 673e 2f7a c23d 2097 54be 4928 e4bc
000000e0: 1c65 cc3c 062e 883e 940c 3c3e fc51 833d
000000f0: 7988 503e 326d 74be c18a 993d 47f1 cd3d
00000100: adeb 683d 4d6f 1c3d dc75 023c 2ec2 913d
00000110: 4928 41be deb5 873d eae6 98bd 6f43 3b3e
00000120: 8186 333e effe 10be 6f45 04be 7398 c73d
00000130: 687a 883d a275 69be 6926 5e3e 9846 663e
00000140: 5cb1 15be f4e9 5f3d 22be 273e 74cd 5e3e
00000150: 56c2 71bd 6a53 debd 0277 00be 9e67 053e
00000160: f62e 4bbe e863 f73d e4b1 5abe d1c8 4f3d
00000170: 3552 a43d 662e 62be 1a97 f03d 9c59 22bc
00000180: fd57 2a3d 70cf 1dbe 522f 403e 9159 09be
00000190: c9aa 85bd b184 15be f07b 49bd 639e f6bc
000001a0: 98f5 2c3e 0ccf fbbc 100c 66be abef 9abd
000001b0: fc74 823e 6cb7 6dbd 51ce 273d d3f1 9f3d
000001c0: dcf1 b93c b79e 9dbe 2613 433e f80d 923e
000001d0: 294e cfbd 9449 203e 67c3 443d 45ab 7fbd
000001e0: 7b65 333e 24c8 973d 796a 073e eeeb 233d
000001f0: 621b 5d3e c3e3 d13d e441 123e fdac 2a3d
